upscale/model/fsrcnn/fsrcnn_x4-T91.pth (torch, 58400 bytes, 22 tensors)

feature_extraction.0.weight f4 [56, 1, 5, 5]
00000000: 8d9d a53e 043e fcbe d179 31bf bbe3 163f
00000010: 122f 213e 0f5a efbe 1617 0e3d 7de6 b53f
00000020: 8147 fbbf 788b 523e 7a32 d73e 0516 89bf
00000030: e373 e7be f190 c33f e2b5 81bf 8509 0dbf
00000040: 39d1 463f 72e4 02bf d62d 79be 9b5d 613f
00000050: 31bc 093f 7e74 1ebf b731 7a3e 70de debe
00000060: b76f 2bbd 51e5 bb3d 65cf 223f 7982 e0be
00000070: 8421 68be 6dcb 11bd 7917 92bf 172b a3bd
00000080: 406b 643f a4b7 e53e 6ae2 c83d 0679 353f
00000090: 4a00 72bf 4a3c 92bf 5ff7 15bf dd48 b3ba
000000a0: 1ffe 7cbc 117c 063f 5c95 1e3f 3b50 bebe
000000b0: 3d4f 4abe bf71 233e f155 fa3d 700b 7dbe
000000c0: 11a4 2e3e 24f1 8d3e 95f0 c63e 19fb dcbe
000000d0: c1f1 183e ac7d dc3d 86a6 7fbe 5f65 f4bc
000000e0: 58ac 0e3e b9d6 f0bd 5325 183f f442 9cbe
000000f0: b74c 34bf a613 cc3f 5418 5ec0 a0b4 94bf
00000100: 20cc 033f 9083 2b3e ec74 f43d 8df4 603e
00000110: c6f8 e4be 053b 4dbd 12da be3d d9f6 d3be
00000120: e6eb 783e 6681 abbe 300c 09bc d793 c33e
00000130: ec35 8bbe 2ddf 55bf 02ba c63e 9622 a13e
00000140: 7010 b33e c006 893f 4cf9 ca3e 348c cabf
00000150: a48d 96be f07e 49bf 0090 48bf 15ac 9c3f
00000160: 494c 983f dd32 cdbd 8345 e23e 5aa7 803e
00000170: 94bd e4bf 2247 c23e 40fc 033f c284 0cbe
00000180: 3c27 0b3f 631a 313e 6edf 0d3d 4d09 04bf
00000190: db0b 88be 49de 503e ae74 0dbf 0471 063d
000001a0: cfe5 1b3e e50d ebbe 8eca 60bf 917a e2bf
000001b0: d4c1 1f3d d58b 44bf e6b9 7abd 378e 453e
000001c0: 8bcf 953f 7fcc f9bd 77c0 7e3d 2e50 973d
000001d0: 900a 83be 7db1 e9be fa00 a1be b46b 5a3d
000001e0: 1b66 cd3d 164a 9bbd 73c8 dc3e f512 20be
000001f0: f641 983d 7312 383e 1b96 3f3e 2393 17be
00000200: 5ae6 e5bd f269 c33e dc8d 193e 792b 7ebe
00000210: 9a53 8abd 0d1f 2d3d 34e1 6e3e 90d5 43be
00000220: 3969 babe 4bbc de3e 822e 32bf fdbd c0bb
00000230: b212 53be 13ec 26be 91f2 823f 9eeb cabe
00000240: 346a acbe d76e b1be c9c3 6ebe 7ddf adbf
00000250: 0fee 7c3f 1460 eebe b611 703d 71d5 e23c
00000260: 673e d63d fea0 953c d0d6 613d 0e6b b13c
00000270: 639e d3bd e80d 1f3d e1bd 23bd 9c9b 863d
00000280: be10 c23d 3cb8 203e 3d0c 3c3f e277 7bbd
00000290: 5e70 0cbd 80be d1bd 0a4f 8cbf dad3 4cc0
000002a0: 8350 bebe 21cc 85be be1b 45be 6753 86be
000002b0: 9d68 1a3f 6d40 9bbd 5cee f93d 32e7 233e
000002c0: df75 963e 767e 0ebe c391 bcbe cb0d 0e3e
000002d0: a663 a93e 2b0c 6d3e 3d00 3cbf de3a 3b3e
000002e0: e203 2c3f ce63 fcbe c9aa 38be 079e 88bf
000002f0: b804 8d3f 02ba fbbd fbbe e8ba b8f7 75be
00000300: 4414 b33f e5f5 68bd 4f90 85bf 0071 be3d
00000310: 3208 033f c2ce 713d d8ea 55bf 1be0 a43e
00000320: 42df ad3e 0aad 9ebd 4f6e 02be 5f10 893e
00000330: 95e0 58be 243e 603d 3c8b 06be 7edc b83d
00000340: a597 69be f804 c2bc 5300 9dbe 3eae 283f
00000350: 5a7a eebf c352 b13e 087d c4be 0a40 e3bd
00000360: 061a a0bf 30c7 b93f 9df0 97bf 7a08 ff3e
00000370: 8bf5 073e 347c 043f fd6f e7be 134f 093d
00000380: 9a1b 4ebd 5760 2fbc cbab 10bf b5b5 94be
00000390: b352 babe cd4d 213f ed21 3abd 2804 803d
000003a0: 89cd 203f 3327 2ebe 66ec 53bd 0c2b 413f
000003b0: 22c5 58bf cc9d 46c0 efd8 be3f 69f2 29bf
000003c0: 7d05 7cbf 4d10 8d3f dccb 81be b208 273f
000003d0: 0bb9 5fbe 0903 a93e d1b7 42be 4792 2abd
000003e0: d34b 3cbf d776 b83e 9110 f93c a8af 903c
000003f0: ec9c 09be 43a9 ddbd 7187 30bc 694c b7bd
0.32346764 -0.49266064 -0.693265 0.5894124 0.15740612 -0.46748397 0.034689985 1.4210964
-1.9631196 0.20561016 0.42030698 -1.0709845 -0.45205602 1.5278608 -1.0133631 -0.5509265
0.77663 -0.5112983 -0.24333891 0.88033456 0.5380278 -0.618965 0.24433027 -0.4352908
-0.041854586 0.09174598 0.6359771 -0.43849543 -0.22669035 -0.035594393 -1.1413413 -0.07967203
0.8922615 0.4486667 0.0980881 0.7088779 -0.9453169 -1.1424649 -0.58580583 -0.0013678331
-0.015441447 0.5253306 0.61946654 -0.37170586 -0.1975679 0.1596136 0.12223423 -0.24711394
0.17054774 0.27723038 0.38855425 -0.43160322 0.14935972 0.107661575 -0.24965867 -0.029833494
0.13932931 -0.11759705 0.5943195 -0.3051983 -0.7042956 1.5943496 -3.4702349 -1.1617622
0.51483345 0.16749406 0.119363636 0.21968289 -0.4472105 -0.050105114 0.09318937 -0.41399267
0.24308738 -0.3349716 -0.008364722 0.3819873 -0.27189577 -0.83543664 0.38813788 0.314717
0.34973478 1.0705185 0.39643323 -1.5824037 -0.29404938 -0.78709316 -0.78344727 1.2240015
1.189828 -0.10019467 0.44193658 0.2512768 -1.7870355 0.37944895 0.5155678 -0.13722518
0.5435674 0.17295222 0.034636907 -0.5157669 -0.26571545 0.20397295 -0.55256164 0.032822624
0.15224384 -0.45909038 -0.87809074 -1.7693654 0.03900321 -0.76775867 -0.061212443 0.19292532
1.1703962 -0.12197208 0.062195268 0.0738834 -0.25593996 -0.45643225 -0.31446058 0.05332537
0.10029241 -0.0758249 0.4312168 -0.15632232 0.07434456 0.17975788 0.18709604 -0.14802222
-0.11225577 0.38166767 0.14995521 -0.24821271 -0.06754227 0.04226594 0.23328096 -0.19124436
-0.36408404 0.4350303 -0.69602215 -0.0058820234 -0.206126 -0.16300993 1.0230275 -0.39632887
-0.33674777 -0.34654877 -0.23316874 -1.3583828 0.9880075 -0.46557677 0.05861064 0.027689667
0.10461121 0.018265244 0.0551365 0.021657493 -0.10332944 0.03883162 -0.039976005 0.06572649
0.094758496 0.1569528 0.73456174 -0.061393626 -0.03428685 -0.10241413 -1.0961621 -3.2004304
-0.371708 -0.261323 -0.19248864 -0.26235506 0.6031588 -0.075806476 0.122036666 0.16006163
0.29386804 -0.13915429 -0.36829957 0.13872449 0.33083838 0.23149173 -0.73437864 0.18284175
0.67193425 -0.49294895 -0.180339 -1.0673226 1.1017065 -0.122913375 -0.0017757112 -0.24020278
1.399056 -0.05687513 -1.0434664 0.09298897 0.5118438 0.05903507 -0.8356147 0.3220223
0.33959395 -0.07747848 -0.12737392 0.26770303 -0.21179421 0.054746762 -0.13139051 0.090264305
-0.22811754 -0.02368401 -0.3066431 0.6589087 -1.8631089 0.34633455 -0.3837664 -0.11096199
-1.2507942 1.4513912 -1.1870304 0.49811155 0.13277261 0.5175202 -0.45202628 0.033522677
-0.05031929 -0.010704122 -0.56512135 -0.2904488 -0.3639122 0.6300934 -0.04544251 0.06250793
0.6281362 -0.17007141 -0.05173912 0.7545631 -0.846758 -3.1033812 1.4909953 -0.66385514
-0.98445874 1.10206 -0.25350845 0.65247643 -0.21847932 0.33010128 -0.19015433 -0.041643407
-0.735532 0.36028168 0.030403407 0.017661884 -0.13438767 -0.108233 -0.010774479 -0.08950121

feature_extraction.0.bias f4 [56]
00000000: d014 90bd 1660 a6be 0596 873e a54b 45bf
00000010: 61b1 913c fee8 ffbc ee84 37bd b866 febe
00000020: 494a 253e b265 b43d a9c4 0fbd 3c94 d1bd
00000030: e07c 3dbd 5ebf 8abe 0bb2 7d3e 3945 703e
00000040: 3be9 80bf ae31 9ebf 3308 07bf 1135 683e
00000050: d9a2 5ebe 5b4b 333f ec78 07bf afeb ac3d
00000060: e65b a6bf b64a e6bd dc84 cb3e 2cbe 7bbe
00000070: 83f5 4ebe 5c00 94bf 401d d0bc 9b3b 9c3f
00000080: da91 5fbe 85cd 2abf 86f3 85bd 2baf e53e
00000090: 4fdc 253e 778f 8b3f 0e6f d6be 387c 953d
000000a0: 8ea5 393d f73d ebbe 4149 2cbd 02fe a3bf
000000b0: ed34 a0be fb99 083e 7d1d d3bd dc76 a2bd
000000c0: 1730 c3be 6932 283d c713 c6be a8c5 49c0
000000d0: 85d4 30bf 34d3 5fbe 9ba1 31be 1340 e1be
-0.0703522 -0.32495183 0.26481643 -0.7706855 0.017784776 -0.031239029 -0.044804506 -0.49687743
0.16141619 0.08808459 -0.03509966 -0.102333516 -0.04626167 -0.27099127 0.24774949 0.23463906
-1.0071176 -1.2358911 -0.52746886 0.22676493 -0.21741809 0.7003686 -0.5291889 0.084433906
-1.2996795 -0.11244719 0.397498 -0.24584264 -0.20210843 -1.156261 -0.025404572 1.220569
-0.21832982 -0.6671985 -0.06540589 0.44860205 0.16197322 1.0903157 -0.41881603 0.072990835
0.0453239 -0.45945713 -0.042062048 -1.2811892 -0.3129038 0.13339989 -0.10308359 -0.07932827
-0.38122627 0.0410637 -0.38686964 -3.152689 -0.6907428 -0.21857911 -0.17346804 -0.43994197

feature_extraction.1.weight f4 [56]
00000000: 8c58 7c3b c66c 753a 47ee adbb f7bc 8dbc
00000010: 2afd 8fbc e910 24bd aa5e 2cbe e4e0 1dbd
00000020: cc08 913c a693 29bc c9b7 d53a 2126 613b
00000030: 4c63 2bbd c1ae a5bd 5cd0 2bbd a397 85bc
00000040: 28ee 2dbd 57c6 ebb8 4158 98bd 601e 1dbf
00000050: d37a bfbc 1971 c4bd 7d9e 8e3f 4ec7 8dbf
00000060: e0d0 b5bc f277 3bbf c2b3 c2bc d5ba 5cbd
00000070: 47de 95be 81bf 36bd 3699 cf3a 0e3f 0dba
00000080: 1cda 3fbd 205f 8b3f ce0b 5d3c bc61 5f3f
00000090: a3df 5abf 944f 15bc 97ef 00bc 93a3 a2bb
000000a0: 513e d7bc 48f5 0f3e e339 d0bc 0651 643b
000000b0: b620 2fbc ae39 9e3b f79d 9abd becf d9bd
000000c0: db16 34bd b4cf e7bc 9cbe c03c dc15 c8bb
000000d0: 6752 38bc a8b4 5ebd 6d0d 273c e61d 033b
0.0038504926 0.0009362217 -0.005307946 -0.01730202 -0.017576773 -0.04005519 -0.16832986 -0.03854455
0.01770439 -0.010350144 0.0016305383 0.0034355002 -0.041842744 -0.08089972 -0.041946754 -0.016307658
-0.04246345 -0.00011242617 -0.07438708 -0.61374474 -0.023373997 -0.09591884 1.1142117 -1.1076448
-0.022194326 -0.732299 -0.023767356 -0.053889114 -0.29271147 -0.044616226 0.0015838507 -0.0005388119
-0.046838865 1.0888405 0.013491584 0.87258506 -0.8549749 -0.009113211 -0.007869623 -0.004963347
-0.026274832 0.14058411 -0.025418228 0.0034838333 -0.010688951 0.0048286533 -0.07549661 -0.10635327
-0.04396711 -0.028297283 0.02352839 -0.0061061215 -0.011250115 -0.054371506 0.010196072 0.0020006835

shrink.0.weight f4 [12, 56, 1, 1]
00000000: 1a48 f33b dd4a 473c a70b 04bc fd05 213c
00000010: 836d bbbc 0201 853c 92e6 a2bd 68fd 92ba
00000020: fd92 563c 96d2 67bc e7b5 acbb e1ff 5fbb
00000030: 938c 8ebd a97a 5fbc 13ca 353b f053 2bbc
00000040: 005c 843c e424 2bbb 85e3 f53b 315d b6bc
00000050: 31eb 0d3c cb28 95bb a70a 463e edd4 2e3c
00000060: ac19 78bc 3eb1 f0bc e189 eab8 cfc8 173c
00000070: 9101 30bc 8dec 233a 5670 97ba 779d b8bd
00000080: 03d5 3f3c 4926 323f 6fff 883c d24d 6c3d
00000090: eaea bd3c 045d 55bd d1d6 99bc 6cd9 eebc
000000a0: f202 163c 6352 4c3b 768d 1fbc 7a5e 0e3d
000000b0: 34f4 b4b9 d8fd 99bd 3f8f 523c f0a0 bb3b
000000c0: c2cb 6abc 6e95 c03b 1ba9 d6ba 9a5f 413d
000000d0: 65db 0c3c 12a0 85bc 9c33 12bc 7f56 6a3b
000000e0: f43a 44bd 4211 a3bc fec5 70bd 0dbd 6abe
000000f0: 01a0 0bbf f5b8 3b3e 0185 3c3e 422b 25be
00000100: 2f3e 073e ccaf 03be e68b 1d3c 38bb 2bbb
00000110: d4c5 e33d 5aad 02be 29e4 95be 386f 7f3a
00000120: b811 8fbb a19a 1fbd af5c 0d3e a100 9abe
00000130: 2eab 5fbd f9b7 9bbe 0d1d edbe ffd3 ae3e
00000140: f9d5 14bd dbd6 8fbe b75d 22bd 7ece b5bd
00000150: fb68 81be 38f2 853d f6a6 62bc 621a 0dbe
00000160: 46e6 b4be 5daa a83e 2127 313d 4caa 09bd
00000170: 4dd5 be3e dd53 f3bc e74b b43c 6934 efbd
00000180: acb1 73be 9658 8bbf d29f babd 058c 133c
00000190: bb2e 1e3f 0054 8abe 5e9e a13d 09ec 01bd
000001a0: 8e12 513e 334f a83e 323a ab3e 2843 b6bc
000001b0: 6634 1e3d bbae 98be e4d4 2e3d ede2 16bd
000001c0: 28f2 cc3c 85a9 13bf d2f7 83be dee5 71bd
000001d0: 706d f5be 2fb1 893e a0b4 e13d 54a0 a5be
000001e0: 9891 02bf 31a7 bc3d b3c6 8b3d 2021 6f3b
000001f0: ce4c c93d 99e5 9d3c 75d9 d03d 4372 9c3e
00000200: 682e 17bd 0522 8fbe 4a3e bbbe c05d c73d
00000210: 2165 93bd 3204 a53c f9ea 8d3e 50f1 04bd
00000220: 888c 21bf ad5d cbbf 9109 c33d 90fe 5bbe
00000230: c8b5 02be c27c 88bd 38f6 03bc 744a 753e
00000240: bf60 bebe c938 18bf 361a 64be 9a1a b7bd
00000250: b0e0 b13f de9f 2dbe 7d2c af3e 9793 a7be
00000260: 99ef e23b 7d30 983e 1b57 d6bd 8abc 483f
00000270: 977f ec3e 2f27 863c 42bb 43be 7667 efbd
00000280: 20c5 163f 91c9 acbe a324 903e 0019 24bd
00000290: 33ce 2d3e d506 7fbe d2e6 e7bd b9a2 1a3d
000002a0: 0222 563e 44b4 7bbd 97ef e03d c40b 873d
000002b0: 7f15 7a3e 182a b03d f8e5 a3be 45f0 b83d
000002c0: 6997 1abd b26b b7be fe3b 01bd 9c2c 54bb
000002d0: 9c85 9bbd 0dc1 d23d 7c1d 513e 0b0f 99be
000002e0: 90ad 29bd 91de 0bbe 242a 9f3d 83ba 94bd
000002f0: ea13 713d 072c 99bd 5ad0 e63e fb15 7d3e
00000300: 733d c3be 0832 a43e bc43 77bc ae66 21bc
00000310: 3405 fc3d 4de3 69be 9089 79bb f451 b73d
00000320: 2073 d13d 6af7 a8be 7715 a83c a7ef 76bd
00000330: 2bf4 8ebe 72ab f0bd 3ae1 eabc 1d14 23bc
00000340: 7a17 c5bd 6101 abbd 8857 bebc 3637 78bd
00000350: 1331 6bbc 869d b5be e802 debd 1db8 99bb
00000360: 1de7 963d d0db 883d 8546 c23d 632f 25be
00000370: 766f c53e 294c 6cbe 3218 aabd 2eb2 333d
00000380: 85e3 b93e 1893 2c3e 2fc0 af3d 1835 983d
00000390: 08d0 e9bc 8fd4 dc3d dd82 ff3c 4725 95bd
000003a0: 7c09 0ebe 81cb 95bd 177d c9bb 756e 95bc
000003b0: 79ae f13d 1f8e af3e 8221 3e3c 0883 913e
000003c0: ccd7 6abe b3f0 12be 2330 0ebe dfa4 08bd
000003d0: 2deb 343d 2fe6 27bd 30ca 6d3e f300 ae3d
000003e0: 6dba efbd 11c9 ec3e 3920 ccbd 13ad ddbd
000003f0: 7921 c93e 7c74 59bd 8400 613a 5e8e 063d
0.0074243667 0.012163845 -0.008059419 0.009828088 -0.022879368 0.016235832 -0.07954134 -0.0011214437
0.013096568 -0.014149329 -0.005270708 -0.0034179615 -0.06960406 -0.013640084 0.0027738854 -0.010457024
0.01615715 -0.0026114518 0.007503929 -0.022261234 0.008662031 -0.004551982 0.19340001 0.010670883
-0.015142839 -0.02938139 -0.000111836714 0.009264185 -0.010742561 0.00062532054 -0.0011553864 -0.09014409
0.011708501 0.6958967 0.016723363 0.057691403 0.023183305 -0.05209066 -0.01877919 -0.02915641
0.009155976 0.0031177036 -0.009738317 0.03475807 -0.0003451422 -0.0751912 0.012851535 0.0057259724
-0.014330806 0.0058771884 -0.0016377302 0.047210313 0.00859723 -0.016311679 -0.008923437 0.0035757122
-0.047907785 -0.01990569 -0.05878257 -0.2292368 -0.5454102 0.18332274 0.18410112 -0.16129783
0.13207315 -0.1286003 0.009615874 -0.002620412 0.11121717 -0.12761441 -0.29275635 0.0009744051
-0.004366126 -0.038965825 0.13804887 -0.30078605 -0.05460661 -0.30413797 -0.46311226 0.34146115
-0.036336873 -0.2809361 -0.039640155 -0.08877276 -0.25275406 0.0654034 -0.013833752 -0.13779595
-0.35331935 0.32942477 0.043250207 -0.033609673 0.3727211 -0.029703075 0.02200885 -0.11679918
-0.23798245 -1.0886409 -0.091125146 0.009005551 0.61790055 -0.27017212 0.07891534 -0.03171924
0.20417234 0.32872924 0.33442837 -0.02224882 0.03862419 -0.2982081 0.042683497 -0.036837507
0.025017813 -0.5768054 -0.2577501 -0.05905711 -0.47935057 0.26892993 0.110207796 -0.32348883
-0.5100341 0.09211577 0.06825008 0.003648825 0.098291025 0.01927452 0.10197727 0.30555925
-0.03690949 -0.27955642 -0.3657096 0.09734678 -0.07197023 0.020143602 0.27718332 -0.032456696
-0.6310506 -1.5887963 0.09523309 -0.21483827 -0.12764657 -0.06664421 -0.008054309 0.23954183
-0.37183186 -0.5946165 -0.22275624 -0.08940621 1.3896694 -0.16955516 0.3421363 -0.3272979
0.006925535 0.29724494 -0.10465833 0.7841269 0.46191093 0.016376106 -0.19114402 -0.116896555
0.5889454 -0.33747533 0.28152952 -0.040062904 0.1697319 -0.2490495 -0.11323322 0.03775284
0.2091141 -0.06145121 0.10983198 0.06594041 0.24422263 0.08601779 -0.3201139 0.09030203
-0.037742052 -0.35824353 -0.031551354 -0.0032375222 -0.07593843 0.10290728 0.20421404 -0.2989429
-0.041425288 -0.13659121 0.077717096 -0.07262137 0.058856882 -0.07479101 0.45080835 0.24715416
-0.3813282 0.3206942 -0.015091833 -0.009851141 0.1230568 -0.22840615 -0.0038076378 0.08951178
0.102270365 -0.33001262 0.020518048 -0.060287144 -0.2792066 -0.117514506 -0.02867185 -0.009953526
-0.096236184 -0.083498724 -0.023235098 -0.06059953 -0.014354962 -0.35471743 -0.10840398 -0.0046911375
0.073683 0.06682551 0.09486107 -0.16131358 0.385616 -0.23075928 -0.08305396 0.043871097
0.36306396 0.16852987 0.08581578 0.07432002 -0.02854158 0.1078273 0.03119033 -0.07282501
-0.13870806 -0.07314206 -0.006148945 -0.018241147 0.11800856 0.34288117 0.011604669 0.2842028
-0.22933882 -0.14349632 -0.1388555 -0.03336036 0.044169594 -0.040991005 0.2322166 0.08496275
-0.1170548 0.46247151 -0.099670835 -0.10824027 0.3928335 -0.053089604 0.00085831457 0.032850616

shrink.0.bias f4 [12]
00000000: f393 40be dcdc 86be 20de 1dbf 4efe 2cbd
00000010: bf77 5dbe c046 febe 84ba 513e 8914 e53c
00000020: a226 74be 62dd e63c 74ba 28be 29fa fbbe
-0.18806438 -0.26340377 -0.6166706 -0.04223471 -0.21627711 -0.49663353 0.20481306 0.027963893
-0.23842862 0.028181735 -0.16477376 -0.49214295

shrink.1.weight f4 [12]
00000000: 78ba 7d3f 1181 f4bc e0f6 c83d 32cf ff3d
00000010: d2ea f3bd b334 c73c 9cd2 6f3f f7d4 6e3e
00000020: 9ead 5d3d c8df ff3e d0ee 1b3d 7dd9 853d
0.99112654 -0.0298467 0.09812713 0.12490691 -0.11910023 0.024317121 0.9368074 0.23323427
0.054120652 0.4997542 0.038069546 0.06535623

map.0.weight f4 [12, 12, 3, 3]
00000000: 394b 983d fb13 67bf 60ec f33e 30a1 213f
00000010: baba e13e 5528 58bf 95ff 18bf 1b8f 283f
00000020: 35c5 223e f7ee 8a3c d189 44be d0a9 b2be
00000030: b278 163e 77db 6abe 416c 3d3f 93f0 f63e
00000040: ef5a 09bf eb1c 91be 8dbd b8be d761 503f
00000050: 9839 34be 336d c8bd 04c2 1640 67d4 71bf
00000060: 6be0 26bf 2257 2e3f 9a18 1ebe 4330 163e
00000070: 638e 22be 1a4e 7d3e 923f 30be 6cbe c6be
00000080: 4fa3 bb3c b1f0 64be 5641 803e 0646 15be
00000090: 53a7 b9bd f503 34b9 c86c c6be c9f7 ab3e
000000a0: 063b 6cbd f524 80be 7dbd 9ebe 7c11 93bd
000000b0: 6f21 0b3f 6caf 9fbd 9dd5 d4be de56 173f
000000c0: 365e 153e 4737 d8bd 8d0a 4fbe 4a35 6e3c
000000d0: 04fd 933d 9cb4 5fbc fdda 573e 6c7c 8dbe
000000e0: 460f 7fbe 7983 7b3e 1d7d d2bd 4ee4 ffbe
000000f0: d629 ccbe 9afb 533f 4f96 2a3e 4e42 55bd
00000100: e7e6 803e 0c39 083e 629d 923c 5ac3 29bf
00000110: fa1c fa3d 589f 033f 5e5f dcbe d44f 27be
00000120: 0607 27bf 8d50 683e 2065 793e dbd5 dbbd
00000130: 58a5 aebf 5d3f 513e 34ae 803f c360 15bf
00000140: cfc4 16be 8ce5 bd3d 5077 023c 72bc e2be
00000150: 40e9 663e b103 223e b324 fe3e cdd1 e2be
00000160: f8ad f53d a28c d83d 2186 3c3e 1a5a 013f
00000170: 1ecf 84be 8634 d53e e3c0 e3be 2bf7 be3d
00000180: 2d3b cd3d 9476 d73e 1ca7 173e 875b 2fbe
00000190: 339e 85be f5de 533f 1afa 823f e216 953f
000001a0: 40e3 d2bc 0c1e 23bf 2113 d03d ba53 aabd
000001b0: e913 173f 3caa 52bf 0cb0 9dbd 0b19 33bf
000001c0: 8952 a73e d287 1e3f 6836 27be 752e 2d3f
000001d0: 12d9 b2be 7d69 043f 60dc b03e ed93 a5be
000001e0: 5ecb 6f3e bafc 0b3e 4227 bfbd 16c8 713c
000001f0: f5cd 253e f056 c23e 6dd9 96bf 8dcb 5d3f
00000200: 7114 08bd b03c 96be 2d19 c73f a034 0abf
00000210: 89b8 553d c6b3 c73f 2acb d2be 493a a3bd
00000220: a5f4 b53d 08f5 e6bd efcf 8cbe 9fc4 babe
00000230: e1af bbbd 836d 8c3d 4043 a63d c5d6 9e3d
00000240: d401 453e 282c dcbd 76d5 373d f4b8 a6be
00000250: 8abc 153f 5806 a33d a512 7abe a4e3 b33e
00000260: 26a9 27bf 517f 923d 3200 48be c272 993e
00000270: e296 bbbd e337 c3be c15b 723e 66ff 463e
00000280: 5ee1 db3b 78c4 c7be b6b8 16bc bdcc d7be
00000290: a459 b8bd 5544 66be d616 413e 2ef1 d93e
000002a0: c775 69be 1d6c 063f cf66 e2bd 78b8 cf3e
000002b0: f5e1 e13d cba2 62bd eb52 9b3e 7c38 13bf
000002c0: 5eab b2bc 8d9b 09be 8ccc 30bf eb49 ce3e
000002d0: 46f1 0d3f c50b 07bf 4a1e 03bf b672 32bf
000002e0: f902 2840 5746 dd3f 3630 a83c ed4f 94be
000002f0: 4766 acbf 51b6 5e3e 8bca c13d 4f87 cdbd
00000300: 82d4 8cbe 92e0 c1be 83f1 8abe 9026 25bd
00000310: c127 603e ed92 233d 6f2e ba3e 0d2e 153e
00000320: ef87 ae3e 27b8 a5bd 712f 313e 7e82 4bbe
00000330: 4155 83be ee71 c0bd 3de5 9bbd bb24 2c40
00000340: ce44 1fbf e433 533d 1406 34bf 5a3d 5ebf
00000350: 1736 25bf 166f 38bf 88b7 90be b409 113f
00000360: efef d1bc 221d 0c3f 1d23 cdba 8e0c 4a3f
00000370: 202f a7bf f3f7 943e 37f6 fdbc eff3 ac3e
00000380: 2a04 18bd 29c9 773b 4f34 e6bb d65f 5b3e
00000390: 3609 1a3e e1bb 843d b03f 05be fbaa 663e
000003a0: 3597 99bd e718 c5bd 6591 183d a24d 8d3d
000003b0: 474b 57bc 0872 07be d617 03be 991d 9ebc
000003c0: e187 2a3d 8e27 503e 8955 903e 9067 933d
000003d0: 5b7a 6ebe 9b82 2bbe c900 3f3e 9012 c73c
000003e0: e229 babd 64ad 8bbd 9d8c 833e e440 cb3d
000003f0: 6467 60bc 57c1 debb cfd2 af3d 90d8 b03d
0.074362226 -0.9026486 0.47641277 0.6313658 0.44087774 -0.8443654 -0.5976499 0.6584336
0.15895541 0.01695965 -0.19193198 -0.34895182 0.14694479 -0.22935282 0.7399331 0.4823042
-0.5365438 -0.28342375 -0.36082116 0.8139929 -0.17600095 -0.09786453 2.3555918 -0.94464725
-0.65186185 0.68101704 -0.15439072 0.14666848 -0.15874629 0.24736825 -0.1721175 -0.38817155
0.02290502 -0.22357441 0.25049847 -0.14577493 -0.09065118 -0.00017167612 -0.38754869 0.33587483
-0.057673477 -0.25028196 -0.31003943 -0.07181069 0.5434789 -0.07797131 -0.41569224 0.59116924
0.1458672 -0.10557418 -0.20218869 0.014539072 0.07225993 -0.0136539005 0.21079631 -0.2763399
-0.2490817 0.24561872 -0.1027777 -0.4997887 -0.39875668 0.8280579 0.166589 -0.052065186
0.25176165 0.13303012 0.017897312 -0.6631371 0.12212558 0.51415014 -0.4304151 -0.16339046
-0.6524509 0.22686978 0.24354982 -0.10734149 -1.3644209 0.20434327 1.0053163 -0.5835077
-0.14723514 0.09272298 0.007963017 -0.44284397 0.22549915 0.1582172 0.49637374 -0.4430069
0.119960725 0.105736986 0.18410541 0.5052811 -0.25939268 0.41641635 -0.44483098 0.09324487
0.100210525 0.42082655 0.14809841 -0.17124759 -0.2609726 0.8276208 1.0232575 1.1647608
-0.025743127 -0.6371772 0.101598985 -0.08316751 0.59014755 -0.8229101 -0.07699594 -0.6996009
0.32680157 0.61925995 -0.16329348 0.6764901 -0.34931237 0.5172346 0.34543133 -0.3233942
0.23417422 0.13670626 -0.0933366 0.014757177 0.16191848 0.37956953 -1.1785103 0.8663872
-0.03322262 -0.29343176 1.5554558 -0.5398655 0.05217794 1.5601737 -0.41170627 -0.079701014
0.08884553 -0.11277205 -0.2750239 -0.36478135 -0.091644056 0.06856825 0.08118296 0.07755808
0.19238979 -0.1075061 0.044881307 -0.32562983 0.5849081 0.07960194 -0.24421175 0.35134614
-0.65492475 0.0715319 -0.19531325 0.29970366 -0.09159638 -0.38128576 0.23667814 0.19433364
0.0067102155 -0.3901708 -0.009199312 -0.4214839 -0.090014726 -0.22487004 0.18856367 0.42566818
-0.22798835 0.5250872 -0.110547654 0.40570426 0.11029426 -0.055331033 0.303367 -0.57508063
-0.02181023 -0.13438244 -0.69062114 0.4029077 0.5544628 -0.52752334 -0.5121809 -0.69706285
2.6251814 1.7287091 0.020530801 -0.2896723 -1.3468713 0.21749236 0.0946246 -0.10035574
-0.2750588 -0.37866646 -0.27137384 -0.04031998 0.21890165 0.03993504 0.3636355 0.14568348
0.34088084 -0.08091765 0.17303254 -0.19873998 -0.2565098 -0.0939673 -0.07612083 2.6897418
-0.6221436 0.05156316 -0.70321774 -0.86812365 -0.6453566 -0.72044504 -0.28265023 0.5665543
-0.025627105 0.54731953 -0.0015650723 0.78925407 -1.3061256 0.2909542 -0.031001193 0.33779857
-0.037113346 0.003780911 -0.0070252786 0.21423277 0.15042576 0.064811476 -0.13012576 0.22526161
-0.074995436 -0.0962389 0.037248034 0.06899573 -0.013140506 -0.13227093 -0.12802061 -0.019301223
0.04163349 0.20327589 0.28190258 0.07197487 -0.23288862 -0.16749041 0.18652643 0.024300843
-0.0909002 -0.06820181 0.25693217 0.09924486 -0.013696525 -0.0067979502 0.085851304 0.08635056

map.0.bias f4 [12]
00000000: e23d 8f3d 562d 953d c867 f73c 6df5 153e
00000010: 22fa 5ebf b61d 5abd 2357 1dbe 707b d9be
00000020: 2d59 483d 4c4f 00bc bf67 b9bb 21eb 9ebe
0.06994225 0.07284038 0.030200854 0.14644404 -0.8710042 -0.05325099 -0.15365271 -0.42476988
0.04891317 -0.007831406 -0.0056581195 -0.31038764

map.1.weight f4 [12]
00000000: 3b6d f1be 3303 15bf 6ee3 6a3f d4f1 833f
00000010: a3bf cc3d 4aef 12bf 01e3 643e 4d8b 803d
00000020: eb32 11bf ed96 fb3e ec81 e4be f14e 033e
-0.4715365 -0.58208007 0.9175328 1.0308175 0.09997489 -0.57396376 0.2235222 0.062765695
-0.5671832 0.49138585 -0.44630373 0.12823083

map.2.weight f4 [12, 12, 3, 3]
00000000: 7b67 77be f8a0 653d fcf3 c93e 086a 38bd
00000010: 3d38 1bbf 4531 893e 9a54 183e 65b8 153f
00000020: 9acb ba3e 844d a53d eedd 6d3e 5707 09be
00000030: 5487 b33e 7524 1a3d a924 833e 0845 ca3c
00000040: c43a c53d 58a6 f4be 19de a63e 8d91 6bbe
00000050: 72dd 8d3e bb08 76be ae6c 3fbe 58c6 103d
00000060: 3fc1 9bbd 3565 463f 9285 d13d 3457 f5bc
00000070: f88a edbe 62ba dd3e cbcf 0c3f 855b 713f
00000080: a8f4 54bf 6763 4ebe 9fb7 b43e 3343 993d
00000090: 3b01 36bf cbf1 4740 46b0 883f eb2c 1fbf
000000a0: fa60 3240 cc39 833f 4667 cc3d fbf0 ed3e
000000b0: 9a2f 0a3f f5fb 92bd 141c e93c fe18 073d
000000c0: 2742 8dbf 63b6 d2bf 9fc8 8cbf c717 3abe
000000d0: 022b 623f af40 143e b0e5 3ebf ae7c 87bf
000000e0: b09e b33e 5adf 0cbf 53f5 01c0 40ca 6f3c
000000f0: f468 cc3e deb4 fe3e 3ffc dabe 2602 ca3e
00000100: 02ba 97bf f12e ad3d 6d77 2ebf 1655 26c0
00000110: b35f ec3e 8e64 9a3d 4063 47bf 81bd a2be
00000120: 7e80 8bbe d321 3f3e 7db7 3b3c b46b b1bd
00000130: ed65 253e ea56 83bd 6957 44be c08d 69be
00000140: 3a76 d83d 3d6c 01be 0493 823d e537 29bc
00000150: c934 803f eaa3 a5bf 5432 693f ced0 82bd
00000160: 6cc2 833e 6c96 34bc 7052 73bf 3ca7 fdbe
00000170: f8f2 6b3d f718 7d3f 329d 823f f20c 083f
00000180: bcbf 153e 3fef 30bf 4ee9 bdbe e6d1 9dbe
00000190: e601 813f c7c4 9fbc d144 163f 6044 18bf
000001a0: 5fe5 023f 7d8f d03f 9856 053f a5a0 503d
000001b0: 17eb 783e 0c38 2abe b00a 2cbe 6b9e d53e
000001c0: 8d0d 16be 9568 1fbe 3283 073f 97dd 293f
000001d0: 1c5c a13d f4e9 c9bd 0489 bfbe 5e35 8fbe
000001e0: 4718 88be b754 52bf 3f7e 30bf 807a 423e
000001f0: e2ab a8bd ada0 08be 215d 303d cb9f 7a3e
00000200: 0aef abbe 52df b93e 3cd8 6ebe 301d b83a
00000210: 4c34 a03b c273 abbc 5a85 883e 3c84 33be
00000220: 1317 103e 6f4b 3abe a91c 1b3d a5a2 c03e
00000230: 346d 73bc add4 26be d039 bfbd 0548 a43d
00000240: b778 5d3e 6eb4 1fbf 741f 913e 373e 873f
00000250: 7291 12c0 70b0 0cc0 6bc2 1b3f 638f 0e40
00000260: 3187 d7bd bedd d93d d3b4 c5be 232f 743e
00000270: 4bb0 f2bb 9492 9fbf caa6 6f3d 91cd 58be
00000280: 7f9c a1be 4ce4 013e dc95 21be e517 ef3c
00000290: e5c5 043d 0d6c bdbd 3683 3fbf 16f2 3a3f
000002a0: 506a e13e 3390 073e 8baf 42bd e702 11be
000002b0: bc8c 1bbf ea4b a53e c5e1 213e cfde 7f3f
000002c0: dfc2 09bf 95ac 6a3c fad0 fd3d b457 61bc
000002d0: 78a3 9bbe 7b73 77be 2ad0 103e abef 51be
000002e0: f43b 2fbf 1560 99be bd60 403e 4a82 173e
000002f0: 51d7 27bf ca4a 743e 6610 4cbe 1922 793e
00000300: 893f b83e 994a 96be e88c 803e 40c3 c9bd
00000310: cb5f e2be 3691 0dbc f2b1 0bbf a12c fe3d
00000320: 777f a9be 6ef7 afbe 472f f6bd 76e8 2fbf
00000330: fa04 2d3f 8676 fd3e f21c 02bf 35c8 d63e
00000340: 2ef5 8abe ec59 5dbf 86e7 c2be 5876 05be
00000350: ef7d 50bf 6688 0a3d c069 1c40 50fd 85bf
00000360: 0e30 533b 879a 5e3c 454a 0abc 9920 8cbb
00000370: a137 403b 0d98 d63a e997 373c 0030 1c3c
00000380: 9e69 02ba 65f9 fbb9 b77e 673c a939 033c
00000390: 6e1c 223b 5bc6 123b 25dc 4f3c ee9c b7bb
000003a0: 9a79 053c a171 133c 7f2e a3ba f72b c53d
000003b0: 5c70 d33c c3cc a73d dc67 37be 17ca 293e
000003c0: 991e 7f3b 9939 393e ef7f 8a3d e1fc b8bc
000003d0: 0e73 23be 1909 21bd 6a06 17be d335 de3f
000003e0: 18f6 c13d 71d3 1b3d 745d 093e a70f 81bc
000003f0: 9b88 933d 9260 14be b0c9 39bd 47e5 5abb
-0.24160568 0.056061715 0.39443958 -0.045022994 -0.6063269 0.26795402 0.14876023 0.5848449
0.3648346 0.080714256 0.2322919 -0.13381706 0.35064185 0.037632424 0.25613907 0.02469112
0.09630349 -0.4778316 0.32591322 -0.23004742 0.27708012 -0.24026768 -0.18693802 0.035345405
-0.07605218 0.7749818 0.10230555 -0.029948808 -0.46395087 0.4330626 0.55004567 0.9428027
-0.83185816 -0.20155106 0.35296342 0.0748352 -0.7109563 3.1241329 1.0678794 -0.62177914
2.787169 1.0252013 0.09980635 0.46472916 0.53978884 -0.07176963 0.028455772 0.03298282
-1.1035813 -1.646191 -1.0998725 -0.18173133 0.88346875 0.144778 -0.74569225 -1.0584924
0.35082006 -0.5502831 -2.0305984 0.0146356225 0.39923823 0.49747366 -0.42770573 0.39454764
-1.185364 0.08456219 -0.6815098 -2.5989432 0.46166763 0.075387105 -0.7788582 -0.31785205
-0.2724647 0.18665247 0.011457321 -0.08663121 0.16152163 -0.06413062 -0.1917397 -0.2280798
0.10569425 -0.12638946 0.06375697 -0.010328268 1.0016109 -1.2940648 0.9109242 -0.063874826
0.2573427 -0.0110221915 -0.95047665 -0.49541652 0.05760476 0.9886622 1.0204222 0.5314475
0.14623922 -0.6911506 -0.3709206 -0.30824202 1.0078704 -0.01950301 0.58698756 -0.5947933
0.5113124 1.6293789 0.52085257 0.050934453 0.2430843 -0.16622943 -0.16800952 0.41722426
-0.14653607 -0.15567239 0.52934563 0.66353744 0.078788966 -0.09859076 -0.37409222 -0.27970403
-0.26581022 -0.82160515 -0.68942636 0.18992043 -0.08235909 -0.13342543 0.043057565 0.24475019
-0.3358081 0.36303192 -0.23324674 0.0014046784 0.004889047 -0.020929221 0.2666424 -0.17530912
0.14071302 -0.18192838 0.03786913 0.37624088 -0.014857579 -0.16292067 -0.09337199 0.08021549
0.2162808 -0.6238469 0.2834431 1.0565861 -2.2901273 -2.198269 0.60843533 2.2275016
-0.105238326 0.10637997 -0.3861452 0.23846106 -0.0074062697 -1.2466607 0.05850867 -0.21172167
-0.3156471 0.12684745 -0.15779823 0.029186198 0.03241529 -0.09249125 -0.74809587 0.73025644
0.44026423 0.13238601 -0.047530692 -0.14161263 -0.6076162 0.3228448 0.1580878 0.99949354
-0.53812975 0.014323373 0.12393375 -0.01375382 -0.30398154 -0.24165146 0.14141908 -0.20501582
-0.68450856 -0.29956117 0.18786903 0.14795795 -0.6556292 0.23856655 -0.1992813 0.24329413
0.35985973 -0.29353788 0.25107503 -0.09851694 -0.4421371 -0.008640578 -0.545684 0.12410856
-0.3310506 -0.3436846 -0.12020736 -0.6871408 0.6758572 0.4950449 -0.5082542 0.4194962
-0.27140182 -0.86465335 -0.38067263 -0.13033426 -0.8144216 0.033821486 2.4439545 -1.046793
0.0032224688 0.013586647 -0.008440559 -0.004276347 0.0029330032 0.0016372219 0.011205652 0.0095329285
-0.00049748446 -0.00048060264 0.014129332 0.008009353 0.0024736184 0.002239606 0.012686764 -0.0056034243
0.008146668 0.008999259 -0.001244977 0.09627526 0.025810413 0.08193352 -0.17910713 0.16580997
0.003892815 0.18088378 0.06762683 -0.02258152 -0.15961859 -0.039315317 -0.1474854 1.7360176
0.09470767 0.038043443 0.13414556 -0.015754534 0.0720379 -0.14489964 -0.04535836 -0.003340082

map.2.bias f4 [12]
00000000: a1de 20bf 1c92 1c3f dd5e 01be a793 71be
00000010: 5a99 a3be 408d d4bd 916d 123f e6db 6f3e
00000020: c089 ae3e b44a 623d 863d 043e de92 193d
-0.62839705 0.61160445 -0.12633844 -0.23591481 -0.31952935 -0.10378504 0.57198435 0.23423728
0.3408947 0.055247024 0.12914094 0.03749358

map.3.weight f4 [12]
00000000: 405c cb3d bd54 2f3e 30af 7d3f 0afc 493f
00000010: abfd 69be 03f3 ccbd 9a4c 163d 353d 783e
00000020: 2d8c b63a 9ff4 cdbe f795 aa3e 5753 793c
0.09929705 0.17122169 0.9909544 0.78900206 -0.22850673 -0.10007288 0.036694147 0.24242099
0.0013927274 -0.40225694 0.3331754 0.015217624

map.4.weight f4 [12, 12, 3, 3]
00000000: 2c9f 943f 3d29 f7bc 867e 04be bd69 e0be
00000010: 353f a03f 6b37 253f 2f16 97bf 1739 7b3f
00000020: 8c6f 5b3f 298e 0c3d bd1e 7bbe f830 50be
00000030: 9a79 133e 1701 a03d 4fd3 9abe 0493 6dbd
00000040: e749 f73d 5564 af3d 5dfe 693e 330c bc3e
00000050: 4d7c 45be 45e1 0cbe 1f38 1c3e 1a9c 7bbd
00000060: aef7 1bbc d0fe 23bc 36f9 eabc 7fbd a1bd
00000070: 72ad 483e b04c f3bd 2625 003e 87a8 0c3f
00000080: bae5 d6be 48d8 193e 3515 fcbd 2d71 2fbe
00000090: 9f9a 27bf 3c97 c03e ac15 0bbf f3f6 8bbf
000000a0: c674 4c3d 9661 d9bd 2a44 8cbe 3391 4cbf
000000b0: 4bcc e9be 7b60 563e 54f0 61be e696 d0bd
000000c0: 4278 aabe da03 963c 6043 ffbd a60d 3c3e
000000d0: 0406 e63d 7229 9b3e 4cbd 403e 2335 cd3d
000000e0: 4815 b6be 959f 933e cf11 9bbe 568d 063c
000000f0: 5f23 7a3e a5cf 6fbe 3aa3 e63e d679 df3e
00000100: f6a9 dcbd c8c9 17bf cb78 713f 12f9 c5bf
00000110: ad0e 20be 4a43 e13d c0c4 8bbe 9c99 a53c
00000120: b05a 073f d1ea 59bc 4182 b9bd 244f 05bf
00000130: d5e1 143f 537e aabc acdd 25bf bcb5 643f
00000140: 4fcb 04bf c4c3 383e bd58 9b3e 10c7 89bd
00000150: 9a5f aa3e a585 5e3e d1e0 233d 2eaf 92be
00000160: 17bc babd 04cf 1e3e 719c a43c 46d8 123e
00000170: abe9 473f c410 ca3e 3f22 56bd 62f0 c93e
00000180: a514 283f 635a 8cbe e47c 863d dc55 dc3e
00000190: e736 84be 9809 c3bd f5c2 bfbe ab16 41be
000001a0: d3af c7bd 864f 7abe 4471 4bbe 3155 983d
000001b0: af9a 163d 4c4e 8dbf 58a8 f9bf 340a e23f
000001c0: bc5f 0340 34cf 0940 7902 7abf baf0 1cbf
000001d0: bd10 9a3f 0c2b 8e3e dba0 883d 64ab 1e3e
000001e0: 1a1f 9d3d 8080 3dbe 94dd a2be fe46 93bc
000001f0: be8f edbd 3d53 7d3c 41bf 88bd 3999 a9be
00000200: 168d cc3e 2536 e73d fa5d 533f 13f5 6fbf
00000210: 5c3f bbbc 0390 93be e336 003f 2957 1dbe
00000220: cc3b 20bd 39f5 8f3e 30d7 01be 8bf4 4f3e
00000230: 6215 d33d bd7f e23d 1db3 8f3c c865 5abe
00000240: 3d63 50bf 354a 37bf f2df 253e 4062 42be
00000250: f49c fabe 1806 61bf d9fa f2be e7a1 56be
00000260: 2910 213e b595 573d e883 5b3d 639f 953d
00000270: 88fe 5f3e 1438 44be 1986 de3d 15e2 dabd
00000280: 3633 c0be 7ed8 a43e 0f5e 503e d464 3c3e
00000290: b6bf 363e 82f0 be3e 65ff 4d3e 8f74 bbbd
000002a0: 946d 83be 081f 0abd faab b73e 72b3 b6bd
000002b0: 05b4 27be fab0 d2bd eb9c 813e 9619 d2be
000002c0: 9cf5 a6bd 1ea5 c5bd 0f68 f6be a3ba cd3d
000002d0: ff86 893e 3bed d8be 78a7 27bf c35b 6ebe
000002e0: 35fe d13e 721f c43e 1974 7e39 c29a ce3e
000002f0: eae9 fc3d 57c5 f4bd 3ca1 94bf 0197 10bf
00000300: 1849 11bf 1a60 213f 5cd3 313d f758 9cbd
00000310: 9fce 02bf 956b 8bbe f32c b03e 9942 d9bd
00000320: b470 fabe ecdb 57bf 5989 6cbf b328 ca3d
00000330: 7c74 c1be f585 c0be 1709 45be 244e 043e
00000340: 9025 10bd bece bc3d 5267 a53e 100b 24bf
00000350: d4d2 a7be a7bd 2dbe 9aee 213c 0f93 793d
00000360: 0b8c 1e3e 43e2 503d 2200 d5be 5116 a33e
00000370: d20b 7dbe 85e8 34be 52f5 8e3c 2540 24bf
00000380: 202c 81ba 0008 333d 06be 883d 3b75 04bd
00000390: 72aa 4dbc c8f3 d1be 3850 d1bc d81b cc3d
000003a0: 38dc 883d 1e0c 693d 91e3 4e3d 0839 a0bd
000003b0: 982e 383e c1e1 c43b fb5f d2bf 227c 27be
000003c0: 1c8d 203e fa2c b5bd 0a41 423e a752 003e
000003d0: f45b e63e 9287 7d3e 3937 393e 258b 743d
000003e0: 83a8 433e 74f3 43bb 186a 4e3e 1a49 0abd
000003f0: 6a28 5dbc 3a6c d33d 17c6 5c3c 4ee7 5d3c
1.1611075 -0.030171031 -0.1293889 -0.43830672 1.2519289 0.64537686 -1.1803645 0.9813399
0.8571708 0.034315262 -0.24523444 -0.2033118 0.14401856 0.07812708 -0.3023934 -0.058001533
0.12074643 0.08564059 0.22850938 0.36728057 -0.19285698 -0.13757809 0.15255783 -0.061428167
-0.009519501 -0.0100094825 -0.028683286 -0.07897472 0.19597414 -0.11879861 0.12514171 0.5494465
-0.41972142 0.15023911 -0.123087324 -0.17133017 -0.6547031 0.37615383 -0.54329944 -1.0934738
0.04991605 -0.10614316 -0.27395755 -0.79909056 -0.45663676 0.20935242 -0.22064334 -0.101850316
-0.33294874 0.018312383 -0.12464023 0.18364581 0.11231616 0.30305058 0.18822211 0.10019901
-0.3556311 0.2883269 -0.30287024 0.008212408 0.24427556 -0.23419054 0.45046407 0.4364764
-0.10774605 -0.5929227 0.9432494 -1.5466635 -0.15630598 0.109991625 -0.27298546 0.020214848
0.52872753 -0.0133006135 -0.09058047 -0.52073884 0.5815709 -0.02081219 -0.6479137 0.89339805
-0.51872724 0.18043429 0.3034114 -0.06727421 0.33276063 0.21730669 0.040009324 -0.28649276
-0.091179065 0.15508658 0.020094128 0.14340314 0.78090924 0.39465916 -0.052278753 0.3944121
0.656565 -0.2741271 0.0656679 0.43034256 -0.25823137 -0.09523314 -0.37453428 -0.18856303
-0.09750333 -0.24444398 -0.19867426 0.07438124 0.03676861 -1.1039519 -1.95045 1.7659364
2.0527182 2.1532717 -0.9766002 -0.6130482 1.2036358 0.27767217 0.06671306 0.15495068
0.07671948 -0.1850605 -0.31809676 -0.017978188 -0.11599682 0.01546174 -0.06677104 -0.33124712
0.3995139 0.11289624 0.8256527 -0.9373333 -0.02285736 -0.2882081 0.5008375 -0.1536528
-0.039119527 0.28116778 -0.12679744 0.2030813 0.10306813 0.110595204 0.017541463 -0.21327889
-0.81401426 -0.71597606 0.1619871 -0.18982792 -0.4894787 -0.87899923 -0.47457007 -0.20960198
0.15728821 0.052633006 0.053592592 0.07305791 0.2187444 -0.19162017 0.10865421 -0.10687653
-0.3753907 0.3219642 0.2034838 0.18397838 0.1784657 0.37292868 0.20116957 -0.09153091
-0.2566954 -0.033721 0.35873395 -0.08920945 -0.16377266 -0.10287662 0.2531503 -0.41035146
-0.08152315 -0.09650634 -0.48126265 0.10045364 0.26860806 -0.42368492 -0.6548991 -0.23277192
0.41014257 0.3830524 0.00024266577 0.40352446 0.12349303 -0.11951702 -1.1611705 -0.56480414
-0.5675216 0.63037264 0.04341446 -0.07634156 -0.5109653 -0.27230516 0.34409294 -0.106084056
-0.4891411 -0.8431995 -0.92397076 0.09871044 -0.37784183 -0.376022 -0.19241749 0.12920433
-0.035192072 0.092191204 0.3230539 -0.6407938 -0.32778037 -0.16966878 0.009883547 0.06093126
0.1548311 0.05099703 -0.41601664 0.31852964 -0.2471154 -0.17666824 0.017450962 -0.64160377
-0.0009855069 0.0437088 0.06676869 -0.032338362 -0.012552844 -0.41006303 -0.025550947 0.09966248
0.066826284 0.05689632 0.050509993 -0.07823378 0.17986524 0.0060083573 -1.6435541 -0.16355947
0.15678829 -0.08846469 0.18970123 0.1253153 0.4499203 0.24758747 0.18087472 0.05970301
0.19107251 -0.0029899748 0.20157659 -0.03376112 -0.013498405 0.10323377 0.013474963 0.013543917

map.4.bias f4 [12]
00000000: 9fb6 2fbe 4264 883d 30ad 40c0 e5a1 b53d
00000010: 714f 2ec0 5d70 edbd 7752 553e 8965 a83e
00000020: 1b10 853e ad5e bb3e fa2e de3e 038a 7f3e
-0.17159508 0.06659748 -3.0105705 0.088687696 -2.7235987 -0.11593697 0.20832239 0.32889965
0.2598885 0.3659567 0.43395215 0.24954991

map.5.weight f4 [12]
00000000: fb7b c03d 7389 e63b a857 2bbc 6993 b83d
00000010: 3dff 783d 119e 353e 3ebe 213e 2138 6f3b
00000020: 8c1d 883e 040b 6c3f 7780 123c b21e 963d
0.093986474 0.007035428 -0.010457911 0.09012491 0.06079029 0.17736079 0.15795228 0.0036501961
0.26585042 0.9220431 0.008941761 0.073300734

map.6.weight f4 [12, 12, 3, 3]
00000000: b3eb 9fbd c557 02be 2754 90bc 80fd 74bd
00000010: b1e6 1cbe b88b 083e 2776 5ebd 2fd6 c5bd
00000020: 1337 01be 6068 a83d 5dcc 8db9 7a94 63bc
00000030: 0f5f 9bbd da15 85be 4963 7bbd 5aa3 063e
00000040: d6f8 553d ad01 eebd 37f6 c1bd 3736 183e
00000050: e3c4 4cbe 2bca 633e 8077 533f 5cd8 fbbd
00000060: 9e11 2cbe c0c7 05be 373b 03be e7e8 9dbd
00000070: 7662 afbc 8b3b 1d3c ffdf 3f3e c5a8 903e
00000080: 420f c4bd d5f2 d1bb c376 723d f2b6 503b
00000090: 7cd2 01bf f2fc 423f 26d6 443d a298 453e
000000a0: d858 49c0 85cb a33e 8be2 62be 10be 85bf
000000b0: 456b 8fbd 2769 233d bf75 b53d 232e 0abe
000000c0: 18d2 873d 207f 073f beb7 a7be fc6a bd3c
000000d0: 36e4 283c caca fdbc ec11 3fbd bb2e 8ebc
000000e0: d20b e8bd 8f58 edbc 0d58 833e 33e8 48bd
000000f0: 660b 39bd 837d 8dbd 9a29 3f3b 8f8f d43c
00000100: a634 b3bd 7efc 133e 536c 38be bae6 8b3d
00000110: 0b42 c6bd a299 64bd dfeb 8a3e 77b3 043e
00000120: 4b2e 183d 8079 01bd 7a91 383d 5303 873d
00000130: 869e 2b3e 66a6 eb3d 3684 dcbd da0e 93be
00000140: b2be 2b3b 210d b43c 096f 183f ec4f fe3c
00000150: 080c 853e cf73 f5bf e989 173e f713 d03d
00000160: e17c 483e 8e81 91bd 4cd7 693d 3d44 5d3e
00000170: 00a1 be3c c624 2cbe 352e 11be 65e3 383e
00000180: 70b8 8abb 8488 71be b432 fb3c 7244 653e
00000190: a097 363e e00b 523d 5a66 6b3e 5b78 ba3e
000001a0: 2edf 8fbd 1627 9ebd 9b2c 13bd 6f02 823d
000001b0: da01 b6bd c364 2c3d fb10 aa3d 2665 1ebf
000001c0: a7b5 a8bd 8872 113e 127b 5c3d 6b32 11bd
000001d0: 0a30 a0bd f247 3fbd f6e1 003d 1532 80bc
000001e0: 93f8 533d a809 2bbe bf24 c63c e442 823d
000001f0: 18ed 833d 2dd2 4fbd 8668 213d b96f 433d
00000200: 8be9 e6bc 147f 4d3e abf0 b13d 18b6 1abe
00000210: e2b4 9a3d 5f4a 71bd a983 3cbd 2c76 083e
00000220: 45d9 0e3e 18f1 033d a6a3 0a3f c5f3 233e
00000230: fc3f 5fbe 8f69 aabd e8d0 60bd 720c b2bb
00000240: 3642 f1be 3162 883e a486 053e ae21 c4bf
00000250: 6b0a 2d3f 9a02 3c3e f1c8 11bf ed19 8e3b
00000260: 1115 963e f3a2 e03c d80b 023d 8add 4e39
00000270: 5bde 573e 255c 43be 0d60 94be b53b 71bc
00000280: 5e51 d8bc 6c0b 8a3b 8345 36bc 173e 433d
00000290: e0a4 413c e36f 123e 6dc5 913d f055 b5bd
000002a0: c4b7 d63c 5687 59bd 3dd6 bc3a 9b0f 293d
000002b0: cd9b 7dbd 186d 123d 3e4d 8a3d 643f c63c
000002c0: c8c8 6fbc d370 93bd ed57 fb3c d91d acbc
000002d0: 0385 07bc c60f 51bb d662 95bb aa51 013e
000002e0: 60f4 6b3c e4a6 713b 3186 063e 8129 e4bd
000002f0: f21f a7bb 501a 993d 2cc4 c7bc 8ab0 6bbd
00000300: e59f a73f f317 a9bf 5d99 c13d b497 bf3d
00000310: e0c3 9e3d 8f28 d0bd cce9 19be ce43 bf3b
00000320: 211c 9cbd 4429 0abf 938f 7cbe 0970 883d
00000330: 79ed 803c 4ca5 31be 5452 1bbc ddf5 c2bc
00000340: fe8d c93d 7821 323c d48b 083f 728d e93e
00000350: 0ae6 ccbd 53ad e73d 1238 29bd 8b24 213d
00000360: 056e 743e 13fb 90bc b498 463e c84f 32be
00000370: f6af 0c3e 9816 093d 959b 3e3d 9b36 84bd
00000380: 0a0d 743d 8243 af3e 6781 613d c051 4d3e
00000390: fa37 9b3e 90a7 e13e e894 953c 7762 123d
000003a0: 34a1 7a3d d380 b93d f06a eb3d 56f6 72be
000003b0: 3e40 4dbd 0ea9 aa3c 6187 f8bd e6b6 443d
000003c0: ea2f 10bd f376 4d3d c96e 543d 1b2e b6be
000003d0: bb4a 68be 3e9e 0d3e d658 38bd 8711 16be
000003e0: d10e 80bd 6dca 09bd 33ed d4be 154f 6ebe
000003f0: 9187 2fbd 10db adbe 37d6 203e 964f 6b3d
-0.07808628 -0.12728794 -0.017618252 -0.05981207 -0.15322377 0.13334548 -0.054311898 -0.09659993
-0.12618665 0.08223033 -0.00027045878 -0.01389038 -0.0758649 -0.25993234 -0.061373983 0.13148251
0.05223926 -0.116214134 -0.0947079 0.14864431 -0.19996981 0.2224509 0.8260422 -0.12297127
-0.16803595 -0.1306448 -0.12815557 -0.07710438 -0.021409255 0.009596716 0.18737791 0.2825376
-0.09573223 -0.0064071217 0.05919529 0.0031847325 -0.507118 0.76167214 0.04805579 0.19296506
-3.1460476 0.3199121 -0.22156732 -1.0448627 -0.07002882 0.039895203 0.08860349 -0.13494162
0.06631869 0.5292835 -0.32757372 0.023122303 0.010308316 -0.030980486 -0.04664795 -0.017356267
-0.113303795 -0.028972892 0.25653115 -0.049049567 -0.045176886 -0.06908705 0.0029169084 0.02594736
-0.08750276 0.14451787 -0.18010072 0.06831117 -0.096805654 -0.05581058 0.2713308 0.12959085
0.037153523 -0.031610012 0.045060612 0.06592431 0.1675969 0.11506347 -0.10767405 -0.28722268
0.0026206193 0.021978917 0.59544426 0.03104397 0.25985742 -1.9175967 0.14798702 0.10160058
0.19578888 -0.07104789 0.05709009 0.21608062 0.02327013 -0.16810903 -0.14177783 0.18055494
-0.0042334124 -0.23587233 0.030663826 0.22389391 0.17831278 0.051280856 0.22988263 0.3641995
-0.0702499 -0.07722299 -0.03593121 0.063481204 -0.08887072 0.04208828 0.0830402 -0.6187309
-0.082377724 0.14203846 0.053828306 -0.035448473 -0.07821663 -0.04669947 0.031465493 -0.015648881
0.05175073 -0.16702902 0.024187444 0.063604146 0.064417064 -0.05073755 0.039406322 0.04771397
-0.028187534 0.20068008 0.08688482 -0.15108526 0.07554032 -0.058908816 -0.046024 0.13326329
0.13950069 0.032212347 0.5415596 0.1601096 -0.21801752 -0.08320915 -0.05488673 -0.0054336125
-0.47120827 0.26637414 0.13039643 -1.5322778 0.6759402 0.18360367 -0.5694724 0.0043365867
0.29312947 0.02742145 0.031749576 0.0001972822 0.21080916 -0.19078119 -0.2897953 -0.014723708
-0.026405986 0.0042127874 -0.011124971 0.047666635 0.011819094 0.14300494 0.07117734 -0.08854282
0.026210673 -0.053107582 0.001440711 0.04127465 -0.06191616 0.03574857 0.06753014 0.024200149
-0.014635272 -0.07199254 0.030681575 -0.021010326 -0.008271459 -0.003190027 -0.0045589013 0.12628809
0.014401525 0.0036873156 0.13137127 -0.11140729 -0.0051002437 0.07475722 -0.024385534 -0.057541408
1.3095671 -1.3210434 0.0945308 0.09355107 0.07752204 -0.10163986 -0.15030593 0.0058369404
-0.07622553 -0.53969216 -0.24664144 0.06661994 0.015738236 -0.17348212 -0.009480078 -0.023798877
0.09841536 0.010872237 0.5333836 0.45615727 -0.10004814 0.11312356 -0.04131324 0.03934149
0.23870094 -0.017697847 0.19394189 -0.17413247 0.13738999 0.033468813 0.046535093 -0.06455728
0.059582748 0.34231192 0.05505505 0.20050716 0.30316144 0.44073153 0.01825948 0.035738435
0.06118889 0.090577744 0.11495006 -0.23726782 -0.050110094 0.020832565 -0.121351965 0.048025988
-0.035201944 0.050162267 0.051863465 -0.3558205 -0.22684757 0.13829896 -0.045006596 -0.14655124
-0.06252826 -0.033640314 -0.4158722 -0.23272355 -0.042853896 -0.33956194 0.15706716 0.057448946

map.6.bias f4 [12]
00000000: cdcf a6bf 7656 03be ddff 1e3d 1162 8dbe
00000010: 985f 80be d98a af3e d7c4 1fbf b6cc edbe
00000020: 8448 bf3e d308 2c3f 02cc ac3d 915c 0fbe
-1.3032166 -0.12825951 0.03881823 -0.2761388 -0.25072932 0.3428562 -0.6240973 -0.46445245
0.37360013 0.67200965 0.08437349 -0.14000155

map.7.weight f4 [12]
00000000: b01e 883e 6fac 013f b14f c73e 386e de3e
00000010: 7d90 9c3e fbaa 0d3e c98d 613e a45a 803f
00000020: c157 bc3e 613a 943c cdd6 453f 03ee fd3e
0.26585913 0.5065374 0.38927987 0.43443465 0.30578986 0.13834755 0.22026743 1.0027661
0.367857 0.018094243 0.77280885 0.4959565

expand.0.weight f4 [56, 12, 1, 1]
00000000: 3653 eb3c d586 2fbb 4c7e 4bbd 2e6d 0abd
00000010: d241 16bb f280 403c 8bba bcbb f63d 88bb
00000020: 4287 47bc d878 c3bd 28cb 803a c1a4 0fbf
00000030: dbab d93b 6612 38be 941e 943d 5b83 64be
00000040: 90d5 c7bc 2893 08be 57f9 3ebf c32b 463e
00000050: b766 b53e af23 9abe e542 6b3e c978 c83e
00000060: 0ed0 e3be e5d6 c7bd cb50 89bd 8aab 63bd
00000070: 7694 663d db60 b8be f37e 3cbd 02b0 6fbe
00000080: addc e03e 5e8c ea3d 6b64 6dbe db1a 85be
00000090: 7730 c23d 96f8 82be 28b5 263e 884e a6bc
000000a0: 6848 c03d 9b6e 22be eaed 7f3d d1ae 6b3d
000000b0: 0828 32bc db23 073d 9171 60bd 36d5 993a
000000c0: f3a1 e83c 8c9b e03d b84a 18be 043f 76be
000000d0: 1bbc d23c d2be 943c 2b89 c7bc f086 9ebe
000000e0: df64 c5bd 0a9a 8bbc dde7 be3d f6e0 ce3d
000000f0: fc5d 92bf 1e69 03bf c9e1 77bd 07fd 9abe
00000100: 942c bbbd 58cb f0be fe74 14be 6c32 5ebe
00000110: 0dfe c93d 7e63 343c a468 c4be ee71 43be
00000120: 470d 80bf 0659 3abf 18a2 0a3d 63ab babe
00000130: 79b1 99be cc18 15bf 3a94 4abe 7551 27be
00000140: eb2f cdbc 4aff c43c 15a4 14be b95f 8ebe
00000150: 197c a43b f776 023e 8d83 c0bd 840e 893d
00000160: eeac 43bf 5fe3 a53e faf1 ef3b 896e cabd
00000170: 68d5 413e dec2 a0b9 dcb6 f9bd c8d2 823d
00000180: d5eb 0f3d 05c0 83be 2501 2fbe 398b 86be
00000190: 0b61 9ebd a923 cbbe d035 29bc 84a0 89be
000001a0: f14e 5f3e 586f 07be 2b9b 30be c65d 603e
000001b0: b39c 39bf 2e60 863e 902a 30bf c8c2 62bc
000001c0: a241 68bd 3352 813e e277 d3bd 2036 6ebe
000001d0: 7c02 10bd 74ea 2cbd 9664 993d e2b5 c5bd
000001e0: 4998 bebe e8e6 85bd 086f 143d 9666 30bf
000001f0: ed38 adbe 64ab 00be 4f0a 123e f030 84be
00000200: 3e77 373e 753d 963d 4228 40bd 5bc0 2cbe
00000210: a7c8 07bf 623e 04bf b412 32be 3eb9 8f3d
00000220: 2034 7ebe c19d b1be 121b 04bd 8dcf 20bd
00000230: 96b0 3e3e 7669 b9bd a2ae d3bb aeb4 5c3d
00000240: 6d7a 2fbe 6316 1fbe 84b8 cbbd 6eef b03d
00000250: 03a6 333d ade9 90be 7605 38bd d19e bebd
00000260: 1743 a73e 83d7 293d 6981 87be cc87 f8bd
00000270: ffcf 2cbf c896 9dbd 55bb 9dbd 417b b7be
00000280: 949f b7bd 4509 7dbb 6341 9bbe f564 1ebe
00000290: 94c2 c9be 8de7 6fbe af0a b9be a7c9 ae3d
000002a0: 062d fb3c 1f88 983d d6ed ba3d 62d4 e23d
000002b0: 9757 4dbc b198 13bd 1c59 843c 0950 bbbe
000002c0: b233 e13b 6659 983d 0a9c 243e dc82 0ebe
000002d0: 302e 2abf 698c c03e 1760 41be c591 7abd
000002e0: 789f dcbc 607f 9d3e 7568 97be daf5 9fbe
000002f0: 8212 5bbe 8a88 363d 11e7 733d 68fe 4abe
00000300: b3fb e9be aee7 913e ae11 323e c2ad 13be
00000310: 00cc 07be fe92 9e3e f25b ffbc 7458 87be
00000320: 8353 8dbe 1c5a 1c3e 1d40 f0bd 8859 cabe
00000330: d8cb 003e 9784 0cbe 9e05 7cbe 0327 83bd
00000340: 90d6 0fbe 7ba9 99bd 6c0e 0bbe 07dc 053d
00000350: 8bc3 e53d 12ba f7bc a6ad d6bd 1504 783d
00000360: 8164 153e bed5 21bd 9841 11be 9bcb 29bf
00000370: 41fe a1bc 95b1 ca3c b8cd 65be 9ead 08be
00000380: e84f e33c 241a a73e faf4 45bd 928d debe
00000390: bdc9 16bf 1a59 c63d 8c2b 883e d2b7 cdbd
000003a0: 939c 15bc 7a5a 4c3c 78f3 143e 36d0 11be
000003b0: c802 cfbd 58f5 753d cd80 803d 293b 4dbe
000003c0: 9b19 7f3d 6308 77be 3fec 26be 681b 923d
000003d0: 78db 333d 9406 59be ecd4 c8bd 863b a03d
000003e0: 1ad8 843e 9274 91bd 9b5f 053e 9b5c 323e
000003f0: 232b 6cbe 6e4f 95bd fd08 3ebd 8db8 3abe
0.028726202 -0.0026783247 -0.049680993 -0.033795528 -0.0022927416 0.011749493 -0.0057595423 -0.004157777
-0.012178244 -0.095445335 0.000982617 -0.5611077 0.006642801 -0.17975768 0.07232395 -0.22315733
-0.024393827 -0.13337386 -0.7459921 0.19352631 0.35429928 -0.3010535 0.22974737 0.39154652
-0.4449467 -0.09757785 -0.06704863 -0.055583514 0.056293927 -0.36011395 -0.046019506 -0.23406985
0.43918362 0.11452554 -0.23182838 -0.25997052 0.094819 -0.2558028 0.16280043 -0.020301118
0.093888104 -0.15862505 0.062482752 0.057539765 -0.010873802 0.03299318 -0.054795805 0.0011736515
0.028397536 0.10967168 -0.14872253 -0.24047476 0.025724461 0.018157396 -0.024357399 -0.30962324
-0.0963838 -0.017041225 0.09321568 0.10101502 -1.1434932 -0.5133227 -0.06051806 -0.3027117
-0.09139362 -0.4703014 -0.14497754 -0.21698922 0.098629095 0.011010049 -0.38361084 -0.1908643
-1.0004052 -0.7279209 0.03384599 -0.36458883 -0.30018213 -0.5824096 -0.19783106 -0.16339667
-0.025047263 0.024047513 -0.14515717 -0.27807406 0.0050196764 0.12740694 -0.09400091 0.06692222
-0.76435745 0.32400033 0.007322547 -0.09884364 0.18929064 -0.00030662765 -0.12193081 0.063878596
0.035137016 -0.25732437 -0.1709028 -0.26278093 -0.07733353 -0.39675644 -0.010327771 -0.26880276
0.21807458 -0.13226068 -0.17246692 0.21910772 -0.7250473 0.26245254 -0.68814945 -0.013840385
-0.056703217 0.25258026 -0.103256 -0.23262835 -0.03515862 -0.04221578 0.07489888 -0.09653832
-0.3722556 -0.065381825 0.0362387 -0.68906534 -0.33832493 -0.1256538 0.14261745 -0.25818586
0.17916581 0.07335941 -0.046913393 -0.16870253 -0.53040546 -0.5165769 -0.17389947 0.07017754
-0.24824572 -0.3469067 -0.03225238 -0.039260436 0.1862205 -0.09053318 -0.006460027 0.053883247
-0.17136545 -0.15535884 -0.09947303 0.086394176 0.043859493 -0.2830328 -0.044927083 -0.093076356
0.32668373 0.041465294 -0.2646592 -0.12135276 -0.67504877 -0.07694775 -0.077017464 -0.35836223
-0.08965984 -0.0038610261 -0.30323324 -0.154682 -0.39406264 -0.23428173 -0.36140963 0.08534556
0.030661117 0.07447838 0.09127395 0.11075665 -0.01253309 -0.03603429 0.016155772 -0.365845
0.0068726176 0.074389264 0.16075149 -0.13917106 -0.66476727 0.37607124 -0.18884312 -0.061174173
-0.02693151 0.30761242 -0.29571882 -0.31242257 -0.21393779 0.044563808 0.059546534 -0.19823611
-0.45699844 0.2849707 0.17389557 -0.14421752 -0.13261414 0.3097152 -0.031171773 -0.26434672
-0.27602777 0.15268749 -0.11730979 -0.39521432 0.1257776 -0.13722454 -0.24611518 -0.06403925
-0.14046693 -0.07503029 -0.1357972 0.032680538 0.112189375 -0.030240092 -0.104823396 0.060550768
0.1458912 -0.03951048 -0.14185178 -0.663263 -0.019774558 0.02474288 -0.22441757 -0.1334748
0.027748063 0.3263713 -0.04832933 -0.43467385 -0.5890158 0.096849635 0.26595724 -0.100448266
-0.0091315685 0.012472743 0.14546001 -0.14239582 -0.10107952 0.06004843 0.06274567 -0.20042099
0.06228028 -0.24124293 -0.16301058 0.071341336 0.043910474 -0.21193916 -0.098062366 0.07823853
0.25946122 -0.07102312 0.13024752 0.17418139 -0.2306333 -0.07290541 -0.04639529 -0.18234463
