upscale/model/fsrcnn/fsrcnn_x2-T91.pth (torch, 58400 bytes, 22 tensors)

feature_extraction.0.weight f4 [56, 1, 5, 5]
0	0x3ed53674	0.41643107
1	0x3ee780c0	0.45215416
2	0xbf968bbe	-1.1761396
3	0x3f133727	0.5750603
4	0xbdd9c3b2	-0.10633029
5	0xbf52d9d0	-0.82363605
6	0x3e056f4e	0.1303074
7	0x3f485ac5	0.78263503
8	0xbfc5b1f1	-1.5444928
9	0x3f61147b	0.87921876
10	0x3f1aa0c7	0.60401577
11	0xbf9c76c2	-1.2223742
12	0x3e8dc256	0.2768733
13	0x3f14c1ef	0.5810842
14	0xbf86050e	-1.0470293
15	0xbf144f15	-0.5793317
16	0x3f9ac9f7	1.2092885
17	0xbfb28e35	-1.3949648
18	0x3e8a32c9	0.2699187
19	0x3eb9dd32	0.3630157
20	0x3d8df0d3	0.06930699
21	0xbe015e13	-0.12633543
22	0x3e7e6e92	0.24846867
23	0xbf40c22d	-0.7529629
24	0x3dd9dc1a	0.10637684
25	0x3ed31bbf	0.41232106
26	0x3e518757	0.20461784
27	0xbe4b5317	-0.19855915
28	0x3e3e8380	0.18604851
29	0xbeb8fc3b	-0.36129937
30	0xbe3dbeb6	-0.18529782
31	0xbef979d9	-0.48725775
32	0xbe2e1e39	-0.17003717
33	0x3d75e991	0.0600372
34	0x3e18bc82	0.1491566
35	0xbcfacc06	-0.030614864
36	0xbfe8f508	-1.8199778
37	0xbe2a6c7b	-0.16642945
38	0xbe92f89b	-0.28705296
39	0xbda2500e	-0.079254255
40	0x3e55b802	0.20870975
41	0x3f0cc38d	0.54985887
42	0x3e6c683e	0.2308664
43	0x3d92133b	0.07132574
44	0x3e165251	0.14679839
45	0xbe6173d8	-0.22016847
46	0x3d34f688	0.044180423
47	0x3f255dd2	0.64596283
48	0xbe3441bc	-0.176032
49	0x3e008604	0.12551123
50	0x3ea35ee2	0.31908327
51	0xbf18fd90	-0.59761906
52	0x3e579436	0.21052632
53	0x3d8e7f4e	0.06957875
54	0xbd2b6121	-0.041840676
55	0xbd2f1922	-0.042748578
56	0x3e9b21ea	0.30299312
57	0x3d8309bf	0.06398343
58	0x3db2ca3f	0.08729982
59	0xbe0fbd7f	-0.14037131
60	0xbf948e8f	-1.1606005
61	0x40079c90	2.1189308
62	0xc07d7155	-3.9600422
63	0xbeadce40	-0.3394642
64	0x3ef4a796	0.47784108
65	0x3e707f04	0.23485953
66	0xbed13267	-0.40858766
67	0x3fc064b9	1.5030738
68	0xbf0bcb87	-0.54607433
69	0xbeb885ab	-0.3603948
70	0x3ed135c6	0.40861338
71	0xbece20e2	-0.40259463
72	0xbe2f4050	-0.17114377
73	0xbe6a30db	-0.228702
74	0x3e5871dd	0.21137185
75	0x3f1fa2af	0.6235761
76	0xbeaffd97	-0.3437316
77	0xbf214aa5	-0.63004524
78	0x3f0b8d60	0.54512596
79	0xbe81158d	-0.25211754
80	0x3f8a80bc	1.0820537
81	0x3ecb9635	0.39763036
82	0xbf612133	-0.87941283
83	0x3d53e836	0.051735125
84	0x3c9d7655	0.019221464
85	0xc0129541	-2.2903597
86	0x3de1d9ed	0.11027894
87	0x3f3ff667	0.74985355
88	0x3f468374	0.7754433
89	0xbde85d42	-0.113459125
90	0x3e81730c	0.25283086
91	0x3e1f24c1	0.15541364
92	0xbe0e5e06	-0.13903055
93	0xbf491418	-0.78546286
94	0x3f53247e	0.8247756
95	0x3ee67065	0.45007625
96	0x3e859d0c	0.2609638
97	0xbe0c8465	-0.1372238
98	0xbe4e2836	-0.20132527
99	0xbf4419ab	-0.76601666
100	0x3e7796a2	0.24178556
101	0xbf062e11	-0.5241404
102	0xbf132c1a	-0.5748917
103	0x3e73b3f0	0.2379911
104	0x3cdfc9e5	0.02731795
105	0xbf939c64	-1.1532102
106	0xbfaeae54	-1.3646951
107	0xbf638ad0	-0.88883686
108	0xbecc9a84	-0.39961636
109	0xbf5c670f	-0.86094755
110	0xbcbe96a9	-0.0232652
111	0x3ea2fbab	0.31832632
112	0x3f124d80	0.57149506
113	0x3de7dfec	0.113220066
114	0xbb2d42b7	-0.002643747
115	0xb9928ce1	-0.00027952253
116	0xbd8f8722	-0.070081964
117	0x3e6afabc	0.2294721
118	0xbe18f9df	-0.14939068
119	0xbba93a8a	-0.005164449
120	0x3d146289	0.036226783
121	0x3d8c7571	0.06858338
122	0xbc18f1b8	-0.009334974
123	0x3d42eb4d	0.04758768
124	0x3d40e1ac	0.047090217
125	0xbce1556c	-0.027506553
126	0x3e4529f0	0.19254279
127	0x3ea8bda0	0.32957172
128	0xbe0f84c7	-0.14015494
129	0xbe48e8d6	-0.1962007
130	0x3de2b662	0.11069943
131	0xbd8acabc	-0.0677695
132	0xbf552cd7	-0.83271545
133	0x3e71d78c	0.23617381
134	0x3ee1add6	0.4407794
135	0xbd5ca46a	-0.053867735
136	0xbeb2a0fe	-0.34888452
137	0x3fe4189e	1.7820013
138	0xbfd16ecf	-1.6361941
139	0xbea364d5	-0.31912866
140	0xbe54894e	-0.20755503
141	0x3f00c24f	0.5029649
142	0xbfd6f91d	-1.6794773
143	0x3eba7cc7	0.36423323
144	0x3eb9027e	0.36134714
145	0x3e9bec41	0.30453685
146	0xbe2fb618	-0.17159307
147	0xbf06be54	-0.5263417
148	0x3f0fdd88	0.56197405
149	0x3dbf498e	0.09340201
150	0x3d87f4e3	0.06638505
151	0xbba10ed1	-0.0049150963
152	0xbdcaa072	-0.09893884
153	0x38ecc430	0.000112899
154	0x3ca0ee81	0.019644978
155	0xbcdf27bc	-0.027240627
156	0x3c9411bc	0.018074863
157	0x3eb1c172	0.347179
158	0x3922eb27	0.00015537125
159	0xbd0c65d0	-0.034276783
160	0x3d6c1980	0.057641506
161	0x3b053d9f	0.0020330918
162	0x3ea9adf2	0.33140522
163	0x3e02c40d	0.127701
164	0x3cdcf3b3	0.026971674
165	0xbf283b23	-0.65715235
166	0xbe90a405	-0.28250137
167	0xbfdc307c	-1.7202296
168	0xbe446551	-0.19179274
169	0xbf2c86a0	-0.6739292
170	0xbe00d190	-0.12579942
171	0x3d3c4089	0.045959983
172	0xbef407b8	-0.4766214
173	0x3d1d0be2	0.03834141
174	0xbdcc3e93	-0.099728726
175	0xbe00ce05	-0.1257859
176	0x3e9450e5	0.28967968
177	0x3de253f2	0.110511675
178	0x3eb413cf	0.35171363
179	0xbe0c3d7c	-0.1369533
180	0xbf1348fa	-0.5753323
181	0x3e52643d	0.2054605
182	0xc0086902	-2.1314092
183	0x3c6c4b49	0.014422246
184	0xbf007418	-0.50177145
185	0x3da82412	0.08210005
186	0x3e365a22	0.1780782
187	0x3e8c7d96	0.27439564
188	0xbe2d05f8	-0.16896808
189	0x3ec9f8cc	0.3944763
190	0x3e41d9e3	0.18930773
191	0xbc97f00e	-0.018547084
192	0x3f099e66	0.5375732
193	0x3e24f38a	0.16108528
194	0xbda96eae	-0.082730636
195	0xbe9f673c	-0.3113345
196	0xbe82949e	-0.2550401
197	0xbf6c75bc	-0.9236715
198	0xbd16f590	-0.03685528
199	0xbe3a4c2f	-0.18193124
200	0x3ef6315c	0.48084533
201	0xbe1d7244	-0.1537562
202	0xbd8331ba	-0.06405969
203	0xbd8bbda1	-0.06823278
204	0xbdf3dab0	-0.11906946
205	0x3d1f18d9	0.038842056
206	0xbeb103c2	-0.3457318
207	0xbfc3ae74	-1.5287614
208	0xbe6f74dd	-0.23384424
209	0x3d52fcd1	0.051510636
210	0x3e2d9d9b	0.16954653
211	0x3e9ff723	0.31243238
212	0xbfdfae38	-1.7475042
213	0xbcbe8750	-0.023257881
214	0x3e1d453f	0.15358447
215	0xbbdcaac8	-0.006734226
216	0x3db171ee	0.086643085
217	0x3f655e99	0.8959747
218	0x3d03440c	0.032047316
219	0xbe05ad67	-0.13054429
220	0xbd3b2f7a	-0.045699574
221	0x3d12c517	0.03583249
222	0xbb3b9621	-0.002862342
223	0xbd451415	-0.048114855
224	0xbde61f82	-0.112364784
225	0x3f23bbb1	0.6395827
226	0xbf2d7b60	-0.6776638
227	0xbebec660	-0.37260723
228	0xbe93af78	-0.2884481
229	0x3ec7fb12	0.3905874
230	0xbf29761c	-0.66195846
231	0x3ed79490	0.42105532
232	0x3f7f0b65	0.9962676
233	0xbccef3fa	-0.025262821
234	0x3d2918f2	0.041283555
235	0x3f89af6f	1.0756663
236	0xbfc32c00	-1.5247803
237	0xc0345066	-2.8174071
238	0x3fb94045	1.4472739
239	0xbf5ade6c	-0.8549564
240	0x3d9543fc	0.072883576
241	0xbf829dc6	-1.0204399
242	0x3f0a15e0	0.5393963
243	0xbf094bf2	-0.5363151
244	0xbe402d91	-0.18767382
245	0x3ecff9a9	0.40620163
246	0x3daf4b5d	0.08559296
247	0xbe6af2fc	-0.22944254
248	0xbebac3dc	-0.36477554
249	0x3f2a3b0d	0.66496354
250	0xbcacc55c	-0.021090202
251	0xbda3e984	-0.08003524
252	0x3d22a439	0.039707396
253	0xbd406a0f	-0.046976145
254	0x3ccb12b4	0.024789192
255	0x3d696c86	0.05698826

feature_extraction.0.bias f4 [56]
0	0x3e0f3c06	0.13987741
1	0xbe0b482f	-0.13601755
2	0x3e2c4647	0.16823684
3	0xbf0ea23f	-0.5571632
4	0xbda239d9	-0.0792119
5	0xbd7efb82	-0.062251575
6	0xbd997659	-0.07493276
7	0xbafd0548	-0.0019303942
8	0x3ea3b0e9	0.3197091
9	0x3e3e5e7e	0.18590733
10	0xbce53e73	-0.02798388
11	0x3d536289	0.051607642
12	0xbe26f579	-0.16304578
13	0xbf9f85e3	-1.2462734
14	0x3e34a6fa	0.17641822
15	0xbd92c6ea	-0.07166846
16	0xbf43fca2	-0.7655736
17	0xbe9c154c	-0.30484998
18	0xbf00777b	-0.5018231
19	0x3e27e43e	0.16395661
20	0xbea967d8	-0.3308704
21	0x3f574452	0.84088624
22	0xbf16981b	-0.58825845
23	0x3dba1f55	0.09088007
24	0xbff31263	-1.8989986
25	0xbdc76bb8	-0.097373426
26	0x3db60e79	0.08889479
27	0xbe6c0820	-0.23049974
28	0xbe472724	-0.19448525
29	0xbfae0af6	-1.3597095
30	0x3e8cd15e	0.27503484
31	0x3f5fccb2	0.87421715
32	0xbef9af41	-0.4876652
33	0xbf2f90a3	-0.68580073
34	0xbee42845	-0.44561973
35	0xbec756cd	-0.3893341
36	0x3e097da9	0.13426842
37	0x3f428ee8	0.7599931
38	0x3e610139	0.21973123
39	0x3e9e4436	0.30911416
40	0x3e1d8fa4	0.15386826
41	0xbec0c68d	-0.37651482
42	0x3e5541d8	0.20825899
43	0xbfc2ca27	-1.5217942
44	0xbe30b9f4	-0.17258435
45	0x3d0e4901	0.03473759
46	0x3c14703f	0.009059965
47	0x3e73423f	0.2375574
48	0xbeb094e9	-0.3448861
49	0xbf28534d	-0.65752107
50	0xbe81be55	-0.25340524
51	0xc049d6da	-3.1537385
52	0xbe661dd4	-0.22472316
53	0xba859e50	-0.0010194276
54	0x3e20e953	0.15714006
55	0xbb94ccff	-0.004541039

feature_extraction.1.weight f4 [56]
0	0x3c1ac3c7	0.009446091
1	0xbc130576	-0.00897347
2	0xbabe62ff	-0.0014525353
3	0xbbfd054d	-0.007721579
4	0x3c887501	0.016657354
5	0xbbcad416	-0.0061898334
6	0xbb065e73	-0.0020503073
7	0xbb307cdd	-0.0026929893
8	0x3b317409	0.002707722
9	0xbbe942eb	-0.007118573
10	0x3b8ce826	0.004300135
11	0x3b2d42dc	0.0026437556
12	0xbebe9576	-0.37223405
13	0xbc75988e	-0.014989985
14	0x3cff3db3	0.03115735
15	0xbdd73c65	-0.10509566
16	0xbb8fd52e	-0.0043894267
17	0xbf06ed1c	-0.5270555
18	0xbc371b15	-0.01117589
19	0xbef3f90f	-0.47650954
20	0x3e02bf08	0.12768185
21	0xbd64c3e2	-0.05585087
22	0x3f6922e9	0.91068894
23	0xbf6839f2	-0.9071342
24	0xbbca58d5	-0.0061751404
25	0xbf46fe42	-0.77731717
26	0xbd8a996d	-0.06767545
27	0xbd01944b	-0.031635564
28	0xbe1e5728	-0.15462935
29	0xbd0ba7bd	-0.034095515
30	0x3c15ae1f	0.009135752
31	0xba9c82d7	-0.0011940849
32	0x3c1c7fc1	0.009551943
33	0x3f82f12e	1.0229852
34	0x3c91980b	0.017772695
35	0x3f8535f5	1.0407091
36	0xbf220c62	-0.63300145
37	0xbad75679	-0.0016428969
38	0x3945d5a1	0.00018866967
39	0xba365417	-0.00069552794
40	0x3b81f938	0.003966477
41	0xb9715f6a	-0.00023019096
42	0xbcb29c43	-0.021803027
43	0xbbd62e9e	-0.006536319
44	0x3bbf2bc4	0.0058340747
45	0x3c1b2932	0.009470271
46	0xbd66b940	-0.056329012
47	0xbcf42d52	-0.029806767
48	0xbe538aee	-0.20658466
49	0xbb85262e	-0.0040633893
50	0xbc52d9e6	-0.012869334
51	0xbcc6901f	-0.024238644
52	0xbb288370	-0.0025713108
53	0x3c6fcf99	0.0146368975
54	0x3c2f9e57	0.0107189035
55	0xbbe27029	-0.006910343

shrink.0.weight f4 [12, 56, 1, 1]
0	0xbb943434	-0.0045228247
1	0x3bd6945f	0.006548449
2	0x3b3b4ea8	0.0028580818
3	0x3b4ccad7	0.0031248832
4	0xbd9b5900	-0.07585335
5	0x373a2027	1.109395e-05
6	0xbdb0b1c2	-0.086276546
7	0xbc80b59f	-0.015711604
8	0x3a4ca3c7	0.0007806387
9	0xbc1fbe1c	-0.009749915
10	0xba6abd00	-0.0008954555
11	0x3d232c09	0.039836917
12	0xbc1b31dc	-0.009472337
13	0xbb010426	-0.001968631
14	0xbc0e8953	-0.008699733
15	0x3ae4dd58	0.0017460985
16	0x3a4f0202	0.00078967225
17	0xbb34ba2c	-0.0027576787
18	0x3bbc0d99	0.0057389257
19	0xbaf60276	-0.0018769044
20	0x3b893e6e	0.0041883504
21	0xb940e295	-0.00018394955
22	0x3c639baa	0.013892094
23	0xbb0461fc	-0.0020200005
24	0xbc1ce524	-0.009576116
25	0xbbb5e0ff	-0.0055505033
26	0x3bb9593f	0.005656391
27	0xbc173419	-0.00922873
28	0x3a04d66c	0.0005067352
29	0xba10d6e6	-0.00055251864
30	0x3b979913	0.004626402
31	0xbcadb9e7	-0.02120681
32	0xbbb21935	-0.005435134
33	0x3f364e15	0.71212894
34	0xbb9c4024	-0.0047683883
35	0x3e71f359	0.23627986
36	0x3ba4c7e6	0.0050287126
37	0xbc6d0974	-0.014467586
38	0x3c0fe26f	0.008782013
39	0xbc29b5c1	-0.010358275
40	0x3c135b57	0.008993945
41	0xbc0ef20b	-0.0087247
42	0x3bba7047	0.005689654
43	0x3c0275fc	0.0079627
44	0xbb67bca1	-0.0035360234
45	0xbd51cbfb	-0.05121992
46	0xba6ea232	-0.00091031485
47	0xbb592594	-0.003313397
48	0x3b36d6d3	0.0027899041
49	0x3c179e38	0.009254031
50	0x39f7357c	0.0004715136
51	0x39f77ab0	0.0004720292
52	0xbb70028d	-0.0036622614
53	0x3b14fdd5	0.0022734303
54	0x3b101851	0.002198715
55	0x3b85c027	0.0040817442
56	0x3d9506b9	0.07276673
57	0xbd48e150	-0.049043
58	0x3c36e97b	0.0111640645
59	0xbcb0d74b	-0.021587035
60	0xbef7e6d6	-0.484183
61	0x3e8b8fbb	0.27258095
62	0x3ddc9d05	0.107721366
63	0x3d811674	0.06303111
64	0xbdf612ea	-0.12015326
65	0xbd804d56	-0.06264751
66	0xbb47da18	-0.0030494984
67	0xbb66662e	-0.0035156119
68	0xbbecd8a9	-0.0072279763
69	0x3d68488b	0.056709807
70	0x3eafc8ab	0.34332785
71	0xbf066842	-0.52502835
72	0xbbacf4c2	-0.005278201
73	0xbdb87bc3	-0.09007981
74	0xbda7377e	-0.08164881
75	0xbeb93c07	-0.3617861
76	0x3dd3eaf5	0.10347549
77	0xbdf28104	-0.11841014
78	0xbea92338	-0.33034682
79	0x3ee7c757	0.45269272
80	0xbd51d715	-0.05123051
81	0xbe4eec11	-0.2020724
82	0xbe599400	-0.21247864
83	0xbe276658	-0.16347635
84	0xbe79111d	-0.24322934
85	0xba6e9a30	-0.0009101955
86	0x3e14e008	0.14538586
87	0xbcd1bd5a	-0.025602985
88	0xbc9ef22d	-0.019402588
89	0x3e1c0597	0.15236507
90	0x3c509cf7	0.012732736
91	0xbd6c5e0e	-0.057706885
92	0x3e97f2aa	0.29677325
93	0xbd50956d	-0.050923754
94	0xba0ea5f7	-0.0005441601
95	0xbd3e4547	-0.046452787
96	0xbe52ffac	-0.20605344
97	0xbd42e91b	-0.047585588
98	0x3de6627e	0.11249255
99	0xbdfdb61e	-0.12388252
100	0x3e00dff3	0.1258543
101	0xbed65614	-0.41862547
102	0x3d2a0c5d	0.041515697
103	0x3cc789fd	0.02435779
104	0x3e7f9368	0.24958575
105	0xbc64a97f	-0.013956427
106	0xbd235aa1	-0.039881352
107	0x3cd2ba4d	0.0257236
108	0xbdd71824	-0.10502651
109	0xbe392918	-0.18082082
110	0x3ca02366	0.01954813
111	0x3d8bcc25	0.06826047
112	0xbe5e8827	-0.21731625
113	0xbd363ce9	-0.044491682
114	0xbd243097	-0.0400854
115	0xbbec943e	-0.0072198203
116	0x3e6f44d4	0.233661
117	0x3e930f68	0.28722692
118	0x3d86ffcc	0.06591758
119	0x3d9dafe7	0.07699566
120	0xbd811398	-0.06302565
121	0x3e63a926	0.22232494
122	0xbc0b1f58	-0.00849136
123	0xbe28271e	-0.16421172
124	0x3e3fd5c5	0.1873389
125	0xbf097591	-0.5369502
126	0xbb40be21	-0.00294102
127	0xbc693488	-0.014233716
128	0xbe1bd4d4	-0.15217906
129	0x3a632b51	0.00086658174
130	0xbd28e638	-0.04123518
131	0xbd0fb43c	-0.035083994
132	0x3c80f7af	0.015743105
133	0x3e53a1f7	0.20667253
134	0x3ea53bd6	0.32272214
135	0x3c9d63fe	0.019212719
136	0xbdad3589	-0.08457477
137	0xbf3da56e	-0.7408055
138	0xbe2c3cb2	-0.16820028
139	0xbde6e728	-0.11274558
140	0xbe77b398	-0.24189603
141	0xbcc020f5	-0.023453215
142	0x3db8c491	0.09021867
143	0x3e8f26de	0.2795934
144	0x3ba1c64d	0.0049369694
145	0xbe6233dd	-0.22090097
146	0xbdb43583	-0.08799269
147	0xbe2828b9	-0.16421784
148	0x3f1f3cc9	0.62202126
149	0x3e611aa9	0.21982826
150	0xbe915c5a	-0.2839077
151	0xbda81306	-0.082067534
152	0x3cab62c2	0.020921115
153	0x3d9d3457	0.07675999
154	0xbeb3ec83	-0.35141382
155	0x3d381d2d	0.0449497
156	0xbd59aca7	-0.05314317
157	0x3dcf0b2e	0.10109554
158	0xbc230db0	-0.009951994
159	0x3ceb0947	0.028690947
160	0xbdae4cc5	-0.085107364
161	0x3e35434e	0.17701456
162	0xbe28c00f	-0.16479515
163	0x3d967627	0.073467545
164	0x3d9982b9	0.074956365
165	0xbd0d07b0	-0.03443116
166	0xbe170609	-0.14748396
167	0xbe7630e1	-0.24042083
168	0x3d8ed19e	0.06973575
169	0x3d557678	0.052114934
170	0x3caaf165	0.020867059
171	0x3d22f56a	0.039784826
172	0x3e38dd80	0.18053246
173	0x3cc06346	0.023484837
174	0xbe3b70ba	-0.1830472
175	0x3dad19f1	0.084522136
176	0xbd8e4a29	-0.06947739
177	0xbe079e3e	-0.13243958
178	0x3b85636e	0.004070691
179	0xbdb702a8	-0.089360535
180	0x3d924bf2	0.07143392
181	0xbcf00c36	-0.029302698
182	0x3d1d7c8d	0.03844886
183	0xbe5c4d44	-0.2151385
184	0x3cd84d36	0.026404005
185	0x3ee08702	0.43853003
186	0x3d162488	0.036655933
187	0xbe952045	-0.29126182
188	0x3e483743	0.1955233
189	0xbd2e5ad3	-0.042567085
190	0x3e8f3531	0.2797027
191	0x3ea13902	0.31488806
192	0xbe267bbf	-0.16258143
193	0x3ea30aa5	0.3184406
194	0xbd9e493a	-0.077288106
195	0x3df4f2a4	0.119603425
196	0x3daa59bb	0.08317896
197	0xbe2d2d32	-0.16911772
198	0x3d08f4e9	0.03343669
199	0xbce2965c	-0.027659588
200	0x3d36ba10	0.044611037
201	0xbe2ee56b	-0.17079704
202	0xbe110554	-0.14162189
203	0x3ca957ca	0.020671744
204	0xbe95969a	-0.29216462
205	0x3d46666c	0.04843752
206	0x3c340d9e	0.010989575
207	0x3c261819	0.010137581
208	0xbed81837	-0.42205974
209	0x3c713bc1	0.014723719
210	0xbdb5b429	-0.088722534
211	0xbdc5a41e	-0.096504435
212	0x3da46834	0.08027688
213	0xbecaff79	-0.39648035
214	0xbe0d2e7a	-0.1378726
215	0xbd9bb65a	-0.0760314
216	0xbe87249f	-0.26395127
217	0xbe04346d	-0.12910624
218	0xbe96758a	-0.2938655
219	0xbd83ddd0	-0.06438792
220	0x3e833820	0.25628757
221	0xbd8f540b	-0.06998452
222	0xbdea1fce	-0.114318475
223	0x3df2d6ae	0.11857353
224	0x3dea75aa	0.11448224
225	0xbe1b7624	-0.15181786
226	0xbd0c1638	-0.034200877
227	0xbdefc5da	-0.11707659
228	0xbe31fc1f	-0.17381333
229	0xbe1c6696	-0.15273508
230	0x3e9f0194	0.31055892
231	0x3c0586cc	0.008149814
232	0xbe4131ab	-0.18866603
233	0x3e01c900	0.12674332
234	0xbad1df4b	-0.0016011981
235	0xbe24c352	-0.16090134
236	0x3e1596da	0.14608327
237	0x3db17cb0	0.086663604
238	0xbe225b5f	-0.15855168
239	0x3cb98874	0.022648074
240	0xbe425e09	-0.18981184
241	0x3a8ebee0	0.0010890625
242	0xbe01b63a	-0.1266717
243	0xbda478fb	-0.08030888
244	0x3d1710fd	0.036881436
245	0x3bc77318	0.0060867183
246	0x3c89ce87	0.016822113
247	0xbd73bca4	-0.059506074
248	0x3e417e48	0.18895829
249	0x3f02e51b	0.5113084
250	0xbe181aff	-0.14854048
251	0xbd2a16c3	-0.041525614
252	0xbd1895d3	-0.03725226
253	0xbe3a1ab3	-0.18174247
254	0xbde6863d	-0.11256073
255	0x3da6b07e	0.08139132

shrink.0.bias f4 [12]
0	0xbe807b8a	-0.25094253
1	0xbe3cc078	-0.18432796
2	0xbe228cc4	-0.1587401
3	0xbd64ec31	-0.055889312
4	0xbe4178ca	-0.18893734
5	0xbe99f957	-0.30073044
6	0x3e138fed	0.14410372
7	0xbd612645	-0.054968137
8	0xbe476e20	-0.19475603
9	0x3d6141a0	0.054994226
10	0xbe5bbfb3	-0.21459846
11	0xbeda29f4	-0.42610133

shrink.1.weight f4 [12]
0	0x3f7e6341	0.993702
1	0xbdd83563	-0.10557058
2	0x3e9af908	0.3026812
3	0xbe091c4d	-0.13389702
4	0xbceedd49	-0.029158251
5	0x3e129365	0.14314039
6	0x3f1f2d56	0.6217855
7	0x3e968a83	0.2940255
8	0x3d60a2a6	0.054842614
9	0x3f6017eb	0.87536496
10	0xbe15bbbb	-0.14622395
11	0x3d8971d6	0.067111656

map.0.weight f4 [12, 12, 3, 3]
0	0x3da7d969	0.081957646
1	0xbf7fcf3d	-0.99925596
2	0x3f137ffc	0.57617164
3	0x3f04b290	0.51834965
4	0x3f02cca2	0.51093495
5	0xbf496182	-0.7866441
6	0xbef25ec2	-0.4733792
7	0x3f25eca9	0.6481424
8	0xbcf93a63	-0.030423349
9	0xbe0a6dd3	-0.13518457
10	0x3d90858e	0.070567235
11	0xbf37e118	-0.7182784
12	0x3e3cd0f2	0.18439081
13	0x3d71945a	0.05897937
14	0x3ef623ad	0.48074093
15	0x3ed964d1	0.4245973
16	0xbecd62a4	-0.4011432
17	0xbe3f6b12	-0.18693188
18	0xbd4df114	-0.05027874
19	0xbe3357b0	-0.17513919
20	0xbe5de3d0	-0.21668935
21	0xbdc377fe	-0.09544371
22	0x3ebd6697	0.36992332
23	0x3e3822ec	0.17982072
24	0xbda50f1b	-0.08059522
25	0x3eebf285	0.46083465
26	0xbd097504	-0.03355886
27	0x3d5a497c	0.053292736
28	0xbc53cfde	-0.012927977
29	0xbf0b3e2e	-0.54391754
30	0x3d7e4b3f	0.06208348
31	0xbe2876d5	-0.16451581
32	0x3ebb89b7	0.36628506
33	0xbf0aff53	-0.54295844
34	0xbddc0baf	-0.10744416
35	0x3f03908e	0.5139245
36	0xbe2bbd4b	-0.16771428
37	0xbdeebe41	-0.11657382
38	0xbe228198	-0.15869749
39	0x3e8c6308	0.27419305
40	0xbe394e18	-0.18096197
41	0x3dce771a	0.100813106
42	0xbd54e497	-0.051975813
43	0xbe9e9e6c	-0.3098024
44	0x3eaab186	0.33338565
45	0x3dd9a310	0.10626805
46	0xbf377c58	-0.7167411
47	0xbca20297	-0.019776626
48	0x3f26d7c6	0.65172994
49	0xbe57a7c1	-0.21060087
50	0xbeae282b	-0.3401502
51	0xbee2f93c	-0.44330776
52	0x3ee75877	0.4518468
53	0x3dc98bbd	0.09841106
54	0x3e8ec88b	0.27887377
55	0xbe1c34af	-0.15254472
56	0xbba63d61	-0.005073235
57	0x3e471602	0.19441989
58	0xbe505d81	-0.20348169
59	0xbf9c56fc	-1.2214046
60	0xbe8cbc20	-0.27487278
61	0x3f5d4fff	0.8645019
62	0x3e9acc1a	0.30233842
63	0x3d25e908	0.04050544
64	0x3f295ace	0.6615418
65	0xbef6a766	-0.4817459
66	0xbd80d619	-0.06290836
67	0xbf5047a9	-0.81359345
68	0x3f3b9277	0.7327036
69	0x3f0b9c01	0.5453492
70	0xbeee7a82	-0.4657784
71	0x3c4af783	0.012388113
72	0x3ec96fe4	0.39343178
73	0xbf046a60	-0.51724815
74	0x3f41a98c	0.75649333
75	0x3e6ab7c6	0.22921667
76	0xbfacf560	-1.3512383
77	0xbf15d2e4	-0.5852492
78	0x4017ede9	2.373896
79	0xbf66cde4	-0.90157914
80	0xbeca32c5	-0.3949186
81	0x3d7e6ac7	0.06211355
82	0xbebbf293	-0.36708507
83	0xbeb0229e	-0.3440141
84	0x3d2647c8	0.0405958
85	0x3f4d3bef	0.80169576
86	0x3f039327	0.5139641
87	0xbeed42a9	-0.4633992
88	0x3e9fe6df	0.31230828
89	0xbde219f2	-0.11040105
90	0xbc8a0f8d	-0.016853118
91	0x3e217c8e	0.1577017
92	0x3e40cc4c	0.18827933
93	0x3e097045	0.13421734
94	0xbed66b55	-0.41878763
95	0xbea69b46	-0.3254034
96	0x3f011620	0.50424385
97	0x3d3e52e5	0.046465773
98	0xbe58c320	-0.21168184
99	0xbec5b6d0	-0.38616037
100	0x3f4f31b4	0.80935216
101	0xbf060961	-0.5235806
102	0xbda94c92	-0.08266558
103	0x401b75c9	2.429064
104	0x3f35e9b4	0.7105973
105	0xbfc61c0c	-1.5477309
106	0x3f0fe8b0	0.5621443
107	0x3e391961	0.18076088
108	0x3f21f96b	0.63271207
109	0xbf39acc1	-0.72529227
110	0xbdc3c7ec	-0.095596164
111	0xbf4b283c	-0.7935827
112	0x3e84376a	0.25823528
113	0x3f27f9f6	0.65615785
114	0x3d484e5d	0.048902858
115	0x3ebc5897	0.3678634
116	0xbeb9456d	-0.3618578
117	0x3f2d3091	0.6765223
118	0x3efe16b5	0.496267
119	0xbd654842	-0.055977114
120	0x3e58496b	0.21121757
121	0x3d5f6385	0.05453827
122	0xbea473c4	-0.32119572
123	0xbe5743e5	-0.21021993
124	0x3e28e04b	0.16491811
125	0x3eb638b4	0.35590136
126	0xbf5bdebc	-0.8588674
127	0x3ebf99f8	0.37422156
128	0x3db416b5	0.087933935
129	0xbd553f73	-0.052062463
130	0x3f9855ad	1.1901146
131	0xbe251e42	-0.16124824
132	0x3eaf9748	0.34295106
133	0x3f1db2ea	0.61601126
134	0xbe701099	-0.23443832
135	0xbda36141	-0.07977534
136	0x3e8905ce	0.2676224
137	0xbdfc67fc	-0.12324521
138	0xbeecdd97	-0.4626281
139	0xbde5a6a5	-0.112134255
140	0xbe822346	-0.25417536
141	0x3daea94f	0.08528387
142	0x3dcd4753	0.1002337
143	0x3db75909	0.08952529
144	0x3e1757ef	0.14779638
145	0x3c9276bc	0.017878883
146	0xbeab8188	-0.33497262
147	0x3d313723	0.043265473
148	0x3eb20223	0.34767255
149	0xbc919a84	-0.017773874
150	0x3c74f6c2	0.01495141
151	0xbe27fa7a	-0.16404143
152	0xbea6625f	-0.32496926
153	0xbd9d36ff	-0.07676505
154	0xbf0868ac	-0.53284717
155	0x3e51faed	0.20505877
156	0xbf1ffeb5	-0.6249803
157	0xbf1b1b13	-0.60588187
158	0x3f82f959	1.0232345
159	0x3e4ad55b	0.19807951
160	0x3f0194ea	0.5061785
161	0xbf13f7ce	-0.57799995
162	0x3d6660ab	0.056244534
163	0xbf068688	-0.5254903
164	0xbd552aa2	-0.05204261
165	0xbeee2479	-0.465122
166	0x3ee3b426	0.4447338
167	0x3f2755a1	0.65365034
168	0xbe5860fa	-0.21130744
169	0x3f0ff76d	0.56236917
170	0xbc0854dd	-0.008321014
171	0xbdaedae3	-0.08537843
172	0x3f154b64	0.5831816
173	0xbdc9c450	-0.09851897
174	0x3ed63a5d	0.41841403
175	0xbf6834ca	-0.9070555
176	0x3d97735c	0.0739505
177	0xbc8f8ec7	-0.017524136
178	0xbe972f18	-0.29528117
179	0xbdc1d7fa	-0.094650224
180	0x40126a5e	2.2877421
181	0xbf80012a	-1.0000355
182	0xbdd7365f	-0.10508417
183	0xbe283a18	-0.16428411
184	0xbf823bf9	-1.0174552
185	0x3f097ae3	0.53703135
186	0x3da90876	0.08253567
187	0x3dfeb448	0.1243673
188	0xbe454155	-0.19263203
189	0x3e948a30	0.2901168
190	0xbd835c02	-0.064140335
191	0xbd999ddb	-0.07500812
192	0xbe7f0c5e	-0.24907061
193	0xbee12ace	-0.4397797
194	0xbed02d4c	-0.4065956
195	0xbe746a43	-0.2386866
196	0x3e91aeea	0.2845376
197	0x3e816507	0.2527239
198	0xbe0f62d3	-0.14002542
199	0xbea204d9	-0.31644323
200	0xbd703049	-0.0586398
201	0x3de9d15b	0.114168845
202	0x3ecb2f68	0.39684606
203	0x3eb07033	0.344606
204	0xbe3118f7	-0.1729468
205	0xbd8efad3	-0.06981435
206	0xbe2a9d1d	-0.16661496
207	0x3f663026	0.8991722
208	0x3ef301f3	0.47462425
209	0xbee8645b	-0.45389065
210	0xbf92ed4e	-1.147867
211	0x3ff1e774	1.8898759
212	0x3eda1e1b	0.42601094
213	0xbe7d7ac0	-0.24753857
214	0x3f680876	0.9063791
215	0xbfb00577	-1.3751668
216	0xbdae3d5f	-0.08507799
217	0x3e688109	0.22705473
218	0xbd56c09d	-0.052429784
219	0x3f36c289	0.7139059
220	0xbfa2daa2	-1.2722971
221	0x3e618c87	0.22026263
222	0x3d1c6478	0.038181752
223	0x3f0561a5	0.5210212
224	0xbe0388a7	-0.12845097
225	0xbd420f0f	-0.047377642
226	0x3cc4b397	0.024011416
227	0x3e57bd1f	0.21068238
228	0x3d3e58a7	0.046471264
229	0x3e7f2502	0.24916461
230	0xbeaf08ac	-0.34186304
231	0x3d50b261	0.050951365
232	0x3dd5e12c	0.10443339
233	0xbdf8c25f	-0.12146448
234	0x3c4f708f	0.012661113
235	0x3d97a8bd	0.07405231
236	0xbc89e044	-0.016830571
237	0xbdecd98d	-0.11564932
238	0x3d3241d9	0.04351983
239	0xbd9356c0	-0.071942806
240	0xbd9685a5	-0.073497094
241	0xbce79d24	-0.028273173
242	0x3e3a2822	0.18179372
243	0x3d4939de	0.049127452
244	0xbe072c78	-0.13200557
245	0x3c86bc55	0.016447226
246	0x3e44bc71	0.1921251
247	0x3e81d135	0.25354925
248	0xbe5a2f93	-0.2130721
249	0xbd9929b4	-0.07478657
250	0x3e4e556e	0.20149776
251	0xbd8cb933	-0.068712614
252	0xbd9c73ea	-0.07639296
253	0x3d6c156f	0.05763763
254	0x3d707e25	0.05871405
255	0x3db4c43c	0.08826491

map.0.bias f4 [12]
0	0x3caa06d0	0.020755202
1	0x3c687176	0.014187207
2	0x3b82b95a	0.003989381
3	0x3db39d07	0.08770185
4	0xbf642faa	-0.8913523
5	0xb9bb0814	-0.00035673438
6	0xbd3fcf6a	-0.046828665
7	0xbf100ec3	-0.56272525
8	0x3cef5150	0.029213578
9	0x3dbcd7a8	0.09220821
10	0x3dd9801e	0.106201395
11	0xbd8f04d2	-0.06983341

map.1.weight f4 [12]
0	0xbebf5759	-0.37371328
1	0xbeccdab6	-0.40010613
2	0x3f6feb15	0.9371808
3	0x3f80b555	1.0055338
4	0x3dc39a1e	0.0955088
5	0xbefd190f	-0.4943318
6	0x3ea19cd5	0.31564966
7	0xbb980464	-0.0046391953
8	0xbf13787c	-0.5760572
9	0x3f0511aa	0.5198008
10	0x3e2f064f	0.1709225
11	0xbd946975	-0.07246677

map.2.weight f4 [12, 12, 3, 3]
0	0x3da6f629	0.0815242
1	0xbee8e57c	-0.45487583
2	0x3e378b17	0.17924152
3	0x3ee1a51d	0.44071284
4	0xbf6cfcd4	-0.92573285
5	0xbd4494cb	-0.047993463
6	0x3ed28d8a	0.4112361
7	0x3e2a4e86	0.16631517
8	0x3c889744	0.016673692
9	0xbe5ec0d0	-0.2175324
10	0x3a98c0de	0.0011654159
11	0xbe796f57	-0.24358879
12	0xbe85b3ff	-0.2611389
13	0xbf49e376	-0.788627
14	0xbe6970c4	-0.22796923
15	0xbed0352f	-0.40665576
16	0xbe5da826	-0.21646175
17	0x3cde9f84	0.027175672
18	0xbe1eba60	-0.15500784
19	0xbe500f0c	-0.2031824
20	0xbeb49a07	-0.35273764
21	0x3edf1927	0.43573877
22	0xbf2a2f65	-0.6647857
23	0x3e18b1dd	0.149116
24	0x3e984531	0.2974029
25	0xbe40b02a	-0.18817201
26	0xbd7f47b7	-0.062324252
27	0x3f2b1709	0.66832024
28	0xbf1fc895	-0.6241544
29	0xbe459b8e	-0.1929762
30	0xbea24efe	-0.3170089
31	0xbde7c62b	-0.113170944
32	0x3d87cd8d	0.066310026
33	0x3e558a5b	0.2085356
34	0x3e835471	0.2565036
35	0x3dd16a25	0.102253236
36	0x3f84cae3	1.0374416
37	0x3fb23ccb	1.3924803
38	0x3f7c10e1	0.98463255
39	0x4014c98e	2.324802
40	0x3f96a1e5	1.1768156
41	0x3faf1f76	1.3681476
42	0x3ecf649b	0.40506443
43	0xbfd140c2	-1.6347888
44	0x3f36b399	0.71367794
45	0xbea6f63e	-0.32609743
46	0xbe5fff49	-0.21874727
47	0xbe2a09bf	-0.1660528
48	0x3da78e3f	0.08181428
49	0xbf7c4a90	-0.98551273
50	0xbec52406	-0.38504046
51	0xbed865e8	-0.42265248
52	0xbf5941be	-0.8486594
53	0xbe95727a	-0.291889
54	0xbec25b4a	-0.37960273
55	0x3cfd1ae9	0.03089662
56	0x3f10f86f	0.5662908
57	0xbef7443e	-0.48294252
58	0xc00db46b	-2.2141368
59	0x3f204daf	0.62618536
60	0x3e8b565b	0.27214321
61	0xbe834544	-0.25638783
62	0x3df31650	0.1186949
63	0x3d6d876e	0.057990484
64	0x3d809e2d	0.0628017
65	0x3ed075b8	0.40714812
66	0xbefb5d9d	-0.4909486
67	0xbf5d6047	-0.8647503
68	0xbcad7151	-0.021172198
69	0x3eaf884d	0.34283677
70	0xbea71578	-0.32633567
71	0x3d638502	0.055546768
72	0xbe862f95	-0.26208177
73	0xbebc15f7	-0.36735508
74	0x3dfc89e4	0.12330988
75	0xbe21a8cd	-0.15787049
76	0xbefcd503	-0.49381265
77	0xbe7e5e85	-0.24840744
78	0x3e655743	0.22396569
79	0xbf2d5b2d	-0.6771725
80	0xbded7775	-0.1159505
81	0x3e642792	0.2228072
82	0xbdde55de	-0.108562216
83	0x3dae9200	0.08523941
84	0x3f4e30fd	0.805435
85	0xbfecf562	-1.8512385
86	0xbe793667	-0.24337159
87	0x3ea233cb	0.3168014
88	0x3f34d840	0.7064247
89	0x3f449959	0.7679649
90	0xbf501f0a	-0.8129736
91	0xbe046318	-0.12928426
92	0xbc304d0e	-0.010760559
93	0x3efd29a5	0.49445835
94	0x3f9754fe	1.1822813
95	0x3e47076a	0.19436422
96	0xbe7342ec	-0.23755997
97	0xbeba63b7	-0.364042
98	0x3dd5d73d	0.10441444
99	0x3ede1888	0.4337809
100	0x3ca296b8	0.019847259
101	0x3f41b15d	0.7566126
102	0x3f602336	0.8755373
103	0xbe9bbae9	-0.3041604
104	0x3f126b98	0.57195425
105	0x3f4025d8	0.75057745
106	0x3f00558a	0.5013052
107	0xbe923372	-0.28554875
108	0xbe124f2d	-0.14288016
109	0xbda8fb5b	-0.08251067
110	0x3e470b38	0.19437873
111	0xbe8270d5	-0.2547671
112	0xbf52191e	-0.82069576
113	0xbd8986a8	-0.06715137
114	0x3dc1e47c	0.09467408
115	0xbec53619	-0.38517836
116	0xbb70a51f	-0.0036719514
117	0x3e3f6010	0.18688989
118	0x3cc1ecdf	0.02367252
119	0x3d8fae82	0.070157066
120	0xbd3e19e7	-0.04641142
121	0xbf13fd04	-0.57807946
122	0x3cda8ef4	0.026679493
123	0x3d899125	0.06717137
124	0xbe1e6742	-0.15469077
125	0x3e390204	0.18067175
126	0x3dfbedb7	0.123012
127	0x3e35ae47	0.17742263
128	0x3d640d1c	0.055676565
129	0xbe26898b	-0.16263406
130	0xbf02c73e	-0.5108527
131	0xbea2a37d	-0.31765357
132	0x3e1c5c2d	0.15269537
133	0xbdc124ff	-0.094308846
134	0xbd7d3247	-0.061815526
135	0x3e0a5903	0.13510518
136	0xbe013213	-0.12616758
137	0x3d4b9549	0.049702916
138	0x3dcab8d8	0.098985374
139	0xbdc00ed7	-0.093778305
140	0xbdfe1a25	-0.124073304
141	0xbd825b1d	-0.06365035
142	0x3ed34eae	0.41270965
143	0xbc96260e	-0.018328693
144	0x3eceb45a	0.40371972
145	0x3f1c9dc6	0.61178243
146	0xbdf1a7fe	-0.1179962
147	0x3caec16f	0.02133247
148	0xbf82e071	-1.0224744
149	0x3f128ce2	0.5724622
150	0xbeed3ee7	-0.46337053
151	0xbe9e228a	-0.30885726
152	0x3ee8a2c4	0.4543668
153	0xbcd4dca3	-0.025984114
154	0xbd96224e	-0.07330762
155	0xbdc2cc81	-0.09511662
156	0xbe827564	-0.25480187
157	0xbebef2cd	-0.37294617
158	0xbd395eab	-0.045256298
159	0xbdc7598f	-0.09733879
160	0xbd40daa2	-0.047083504
161	0xbcd47095	-0.02593259
162	0xbe15e095	-0.14636452
163	0xbdb43256	-0.08798663
164	0xbea1bac5	-0.31587806
165	0x3de94f51	0.113920815
166	0x3e2d4eb1	0.1692455
167	0x3e054599	0.1301483
168	0xbe7d1630	-0.24715495
169	0x3d7c5477	0.06160399
170	0x3de8aeb7	0.11361449
171	0x3c878d8e	0.01654699
172	0x3cdc95fb	0.026926985
173	0xbd90d0c0	-0.07071066
174	0x3da480ac	0.08032355
175	0xbf96be8b	-1.1776899
176	0x3dc18dbb	0.09450861
177	0x3e154bb6	0.14579663
178	0x3e89f799	0.26946715
179	0x3dff6a9f	0.12471508
180	0xbbcb0e50	-0.0061967745
181	0x3e1dce20	0.15410662
182	0xbb4e9996	-0.003152465
183	0xbdf8c0dd	-0.12146161
184	0xbf24c689	-0.6436544
185	0xbeacb30e	-0.33730358
186	0xbe875451	-0.26431516
187	0xbf40258c	-0.7505729
188	0xbe46fb07	-0.19431697
189	0xbe4c38ad	-0.19943495
190	0x3eed897c	0.46393955
191	0x3e06add8	0.13152254
192	0x3c9838af	0.018581716
193	0x3e45ba6d	0.19309397
194	0x3db4ba5f	0.0882461
195	0xbe128a3c	-0.14310545
196	0xbba630e9	-0.0050717485
197	0xbdd46903	-0.10371592
198	0xbc5cde2b	-0.013480703
199	0x3e78e231	0.24305035
200	0x3d8290f1	0.06375302
201	0xbecfc8eb	-0.40582976
202	0x3e3734ce	0.17891237
203	0xbe9bde3e	-0.30442995
204	0xbe9f3e76	-0.3110234
205	0x3eaec261	0.34132674
206	0xbc90ad3f	-0.017660735
207	0x3d17ba13	0.03704269
208	0xbc92cfc8	-0.017921343
209	0xbe117842	-0.14206031
210	0xbf009c0a	-0.50238097
211	0xbf376a32	-0.71646416
212	0xbee1bf04	-0.44091046
213	0xbdbb3139	-0.09140248
214	0x3cb6b5c8	0.022303477
215	0x3c8d9f4d	0.017287875
216	0x3afa082e	0.0019075924
217	0x39b18b4d	0.00033863858
218	0x3a33ad97	0.0006854175
219	0x38a3d0d8	7.811346e-05
220	0xbbcb50ad	-0.0062046857
221	0x3adaf419	0.0016704827
222	0x3b1ea0ad	0.0024204657
223	0x3bf13fda	0.007362348
224	0xba01f740	-0.00049578026
225	0xbbac338f	-0.0052551697
226	0x3bb0fe3c	0.005401401
227	0xbad474f9	-0.0016209177
228	0xbb066617	-0.0020507628
229	0xbba6502a	-0.0050754743
230	0xbae398ae	-0.0017364228
231	0xbb8587aa	-0.0040750103
232	0xbb0322cb	-0.0020009752
233	0x3b3716e9	0.002793724
234	0xbc0f6470	-0.0087519735
235	0x3d98ef58	0.07467526
236	0x3c6618fd	0.014044044
237	0x3dd8138a	0.10550602
238	0xbe69c508	-0.22829068
239	0x3c58f069	0.013240912
240	0x3bad1425	0.0052819424
241	0x3c9ff87c	0.019527666
242	0x3c723f91	0.014785663
243	0xbcc5bb68	-0.024137214
244	0xbdbed64b	-0.09318217
245	0xbc806388	-0.01567246
246	0xbea0f358	-0.31435657
247	0x3fd82553	1.688639
248	0x3e66c0cb	0.22534482
249	0xbb7437a7	-0.0037264617
250	0x3d4c61c8	0.04989794
251	0xbd178d85	-0.037000198
252	0x3c5ebac2	0.013594331
253	0xbcea66c3	-0.028613454
254	0xbd8de79d	-0.06928942
255	0x3db9b715	0.09068123

map.2.bias f4 [12]
0	0xbda575c7	-0.08079105
1	0x3f54d3c8	0.8313565
2	0x3c19cf10	0.009387746
3	0xbe399c1b	-0.18125956
4	0xbe143191	-0.14472033
5	0xbdca8a88	-0.09889704
6	0x3e635dab	0.222037
7	0x3e9d901b	0.30774006
8	0x3e8b0c70	0.27157927
9	0xbccdcb7b	-0.025121441
10	0x3d8aca7d	0.06776903
11	0x3d1682e9	0.03674594

map.3.weight f4 [12]
0	0x3ddc52aa	0.107579544
1	0x3e79de6c	0.24401253
2	0x3f821fe6	1.0165985
3	0x3f57319e	0.84060085
4	0xbe62c9ec	-0.2214734
5	0xbd05876a	-0.032599844
6	0x3decdb1f	0.115652315
7	0x3db41976	0.08793919
8	0x3c957ada	0.018247057
9	0xbe793a55	-0.24338658
10	0x3f58c632	0.8467742
11	0xbd534915	-0.05158337

map.4.weight f4 [12, 12, 3, 3]
0	0x3f93fe2b	1.1561941
1	0x3efb3059	0.49060324
2	0xbd29d728	-0.041464955
3	0xbfb81fa4	-1.4384656
4	0x4004753e	2.069656
5	0xbf338d97	-0.70137924
6	0x3f52cd5e	0.82344615
7	0x3f0a130c	0.53935313
8	0x3f361a65	0.71134025
9	0x3e7c9740	0.24667072
10	0xbcff4268	-0.031159595
11	0xbda622da	-0.08112116
12	0x3dc996bf	0.09843206
13	0x3d012fca	0.031539716
14	0x3ee24b7c	0.44198215
15	0x3d430890	0.047615588
16	0xbe1e8052	-0.15478638
17	0x3e94448d	0.2895855
18	0xbec38820	-0.38189793
19	0x3f88c5cd	1.0685364
20	0xbf00ccaf	-0.5031232
21	0xbe2a3b16	-0.16624102
22	0x3cad4f14	0.021155871
23	0xbd74f95d	-0.059808124
24	0x3e588ab8	0.21146667
25	0xbf1582ba	-0.584026
26	0x3ec5e784	0.38653195
27	0xbef32008	-0.47485375
28	0x3f595613	0.84896964
29	0xbebd2fd1	-0.36950544
30	0x3e94d7eb	0.29070982
31	0xbd131768	-0.035910994
32	0xbcdce08b	-0.02696254
33	0x3f51ab87	0.81902355
34	0xbebd2e1a	-0.36949235
35	0x3dbc97a4	0.09208611
36	0xbf11bc05	-0.5692752
37	0x3e701bf2	0.2344816
38	0xbf45b210	-0.77224827
39	0xbfabc6bf	-1.3420027
40	0xbf838023	-1.0273479
41	0xbf817fbe	-1.0117109
42	0xbe890942	-0.26764876
43	0xbf3d1454	-0.73859143
44	0xbea58f76	-0.32336015
45	0x3e9dd853	0.30829105
46	0x3df5b5c2	0.11997558
47	0xbe32eb68	-0.17472613
48	0x3e9ae071	0.3024936
49	0xbdbd05ed	-0.09229646
50	0x3d7aa43c	0.061191782
51	0x3d3bbb63	0.045833003
52	0xbe9bb2d5	-0.30409876
53	0x3ecec030	0.40381002
54	0xbe2860a5	-0.16443117
55	0x3eaaa3bb	0.3332804
56	0xbdcf5f86	-0.101256415
57	0x3e4a79d3	0.19773035
58	0xbea61457	-0.32437393
59	0x3a0af7d8	0.0005301214
60	0x3ebfcc77	0.37460682
61	0xbe819751	-0.25310758
62	0x3e655d0b	0.22398774
63	0xbdd585dc	-0.10425922
64	0xbf41821e	-0.7558917
65	0xbf08370a	-0.5320898
66	0x3e839f8f	0.2570767
67	0xbf289ea9	-0.65867096
68	0xbeb4e594	-0.35331404
69	0xbd7e686c	-0.062111303
70	0xbeedf59e	-0.46476454
71	0xbf2fa541	-0.6861153
72	0x3c8a6833	0.01689539
73	0x3d08061a	0.033208944
74	0x3e897452	0.26846558
75	0xbdca2938	-0.09871143
76	0x3d82795c	0.06370804
77	0xbe283c78	-0.16429317
78	0xbe2cea4b	-0.1688625
79	0x3f5c0088	0.8593831
80	0xbed8b4ba	-0.42325383
81	0xbe19bce7	-0.15013467
82	0x3ec4c5a8	0.3843205
83	0x3de1a02f	0.11016881
84	0x3ed038c2	0.40668303
85	0x3e3d4f4b	0.18487279
86	0xbd524896	-0.051338755
87	0xbe9b8d55	-0.30381265
88	0x3eae2b14	0.3401724
89	0x3b8809ac	0.0041515436
90	0x3c82468c	0.01590278
91	0x3d629674	0.055319265
92	0x3f1ccc81	0.6124955
93	0x3e5fe606	0.2186509
94	0x3eae3073	0.3402134
95	0x3cb6c7ab	0.022312006
96	0x3e8aab1e	0.27083677
97	0x3e081f16	0.13293108
98	0xbdcb7d2d	-0.09935985
99	0x3f0f00e3	0.5586073
100	0xbe6a5d84	-0.22887236
101	0x3c32ad98	0.010905646
102	0xbe52f65e	-0.20601794
103	0xbe714ae5	-0.23563726
104	0xbdbe1aa5	-0.09282426
105	0xbeb5389e	-0.35394758
106	0x3e36d791	0.1785567
107	0xbdf73baf	-0.120719306
108	0x3eac487d	0.33649054
109	0x3e7844d2	0.24245003
110	0xbe24a1a8	-0.16077292
111	0x3f5b7095	0.8571866
112	0x3f92c61a	1.1466706
113	0x3f69ec51	0.91376215
114	0x3ec1ca8a	0.37849838
115	0xbf32ef06	-0.6989597
116	0x3f2aaf7e	0.6667403
117	0x3e1b187d	0.1514606
118	0xbdae948e	-0.08524428
119	0xbdfca2fb	-0.123357736
120	0xbd44f7a6	-0.04808774
121	0xbe8e3ed6	-0.27782315
122	0x3e1b5ecd	0.15172882
123	0xbd7e2b0e	-0.06205278
124	0x3da1aff6	0.0789489
125	0x3e976cc7	0.29575178
126	0x3dabc989	0.08388049
127	0xbf09fae3	-0.5389845
128	0x3ef9b23b	0.48768792
129	0x3c7dc07a	0.0154877845
130	0x3f67b6fa	0.90513575
131	0xbf776a9e	-0.9664706
132	0xbd92cfe2	-0.07168557
133	0xbe78165c	-0.2422728
134	0x3ec2cc21	0.38046363
135	0xbec2616d	-0.37964955
136	0x3d8fe9e6	0.070270345
137	0x3ec9f13c	0.3944186
138	0x3d96d1ba	0.07364221
139	0x3eb65d4e	0.3561806
140	0xbefc354b	-0.4925941
141	0xbe0d27a1	-0.13784648
142	0xbdf377d3	-0.11888089
143	0x3bcb22fe	0.0061992398
144	0x3ce4b65b	0.027918985
145	0xbef008b6	-0.46881646
146	0x3ebef343	0.3729497
147	0xbdb53bee	-0.08849321
148	0xbf6b40bf	-0.9189567
149	0xbf6538a4	-0.8953955
150	0xbf029430	-0.51007366
151	0xbeb463e3	-0.35232458
152	0x3dd7b03b	0.1053166
153	0x3dc1ddc5	0.09466127
154	0x3e8af41f	0.27139375
155	0x3ddddf4b	0.108336054
156	0x3db31ffd	0.08746336
157	0xbdc585df	-0.096446745
158	0xbe8b50c4	-0.27210057
159	0x3d0f6a6d	0.035013605
160	0xbddfb909	-0.109239645
161	0x3ebf961e	0.37419218
162	0x3e1677a9	0.14694084
163	0xbe00fa6e	-0.12595531
164	0x3e88c5a1	0.2671328
165	0x3e578735	0.21047671
166	0x3dddaa02	0.10823442
167	0x3dc76f49	0.09738023
168	0x3cabd6de	0.02097648
169	0xbc508c18	-0.012728713
170	0x3e705cb4	0.23472863
171	0xbec63e1b	-0.38719258
172	0xbe0034e4	-0.12520176
173	0xbe2c1a6f	-0.16806959
174	0xbdaeff7b	-0.08544823
175	0xbe1d4934	-0.15359956
176	0xbee2597f	-0.44208905
177	0xbecf28d7	-0.40460846
178	0xbe12c58f	-0.14333175
179	0xbec74b29	-0.3892453
180	0x3e5a05c6	0.21291265
181	0xbeb70e84	-0.35753262
182	0xbef28e23	-0.47374067
183	0xbd0e24b0	-0.034702957
184	0xbe0ad863	-0.13559107
185	0x3d89c7f8	0.06727594
186	0x3d1ef2da	0.03880582
187	0x3e53cfe5	0.20684774
188	0xbc12808c	-0.008941781
189	0xbdccdb66	-0.100027844
190	0xbc63fa70	-0.013914689
191	0x3d7d1a12	0.06179244
192	0x3e9daf1a	0.30797654
193	0x3e6e84ff	0.23292921
194	0x3d3c044c	0.045902535
195	0xbd8f7f22	-0.070066705
196	0xbe45a47a	-0.19301024
197	0x3da28547	0.07935577
198	0x3dea6e18	0.1144678
199	0xbe942185	-0.28931823
200	0x3b8c8f47	0.004289541
201	0xbd8ff8ad	-0.07029853
202	0xbead7f87	-0.33886358
203	0xbeee9101	-0.46595004
204	0xbd2a57b2	-0.04158754
205	0xbd87c485	-0.0662928
206	0x3c3d8025	0.011566197
207	0x3ddc7c64	0.10765913
208	0x3e384529	0.17995133
209	0xbe74e3af	-0.2391498
210	0x3da4c020	0.080444574
211	0xbe11a07f	-0.1422138
212	0x3ce5fe65	0.028075406
213	0xbde47231	-0.11154593
214	0xbdbd0088	-0.09228617
215	0x3daf2ade	0.08553098
216	0x3df23c76	0.11827938
217	0xbf0f17f1	-0.55895907
218	0x3f48a8ae	0.78382385
219	0x3fb8108c	1.438005
220	0x3e5164fd	0.2044868
221	0x3f1147f6	0.5675043
222	0x3f331073	0.69946975
223	0x3f8a9728	1.0827379
224	0x3d83c743	0.064344905
225	0x3e003464	0.12519985
226	0xbee602a6	-0.44923896
227	0x3efd36c5	0.49455848
228	0x3fac93f6	1.3482654
229	0xbe70caf0	-0.23514915
230	0x3efcccc6	0.4937498
231	0xbe3b5b5c	-0.1829657
232	0x3e63c482	0.2224293
233	0xbe6c4b77	-0.23075663
234	0xbe1fe46a	-0.15614477
235	0x3eca01a6	0.39454383
236	0xbe734f97	-0.2376083
237	0x3f056f9c	0.5212343
238	0xbf01fae2	-0.5077344
239	0x3eec2ffd	0.46130362
240	0xbead35c7	-0.3383009
241	0xbc2901cb	-0.010315369
242	0xbe89af1a	-0.26891404
243	0x3f3a94e5	0.72883445
244	0xbeeaac1b	-0.4583443
245	0x3f2a99d5	0.6664098
246	0xbd95ffe1	-0.07324196
247	0x3f31daa8	0.6947427
248	0xbd10fc3b	-0.035396796
249	0xbf8b0798	-1.0861692
250	0x3f2cf14f	0.6755571
251	0xbf55a226	-0.83450544
252	0xbee2666f	-0.44218776
253	0x3e49bd2f	0.19701074
254	0xbe2af811	-0.16696192
255	0x3ca1cdc3	0.019751435

map.4.bias f4 [12]
0	0xbd44a78a	-0.04801134
1	0x3ecd3e81	0.4008675
2	0xbef50c87	-0.4786112
3	0xbdf74ec0	-0.12075567
4	0xbfeb5281	-1.8384553
5	0x3e03156b	0.12801139
6	0x3e823d1a	0.25437242
7	0x3f3dab6f	0.7408971
8	0xbf282711	-0.6568461
9	0x3e2dcd2c	0.16972798
10	0xbf028292	-0.50980484
11	0x3e8fde93	0.28099498

map.5.weight f4 [12]
0	0x3d320407	0.043460872
1	0x3cfcb350	0.030847222
2	0x3c7bee83	0.01537669
3	0x3de36f60	0.111052275
4	0x3d7914bd	0.060810793
5	0x3e52e5d0	0.20595479
6	0x3e64050c	0.2226755
7	0x3b97206f	0.0046120207
8	0x3e2b64f5	0.16737731
9	0x3f7e6e01	0.993866
10	0x3eef2bf9	0.46713236
11	0x3e85af92	0.26110512

map.6.weight f4 [12, 12, 3, 3]
0	0xbc4cd853	-0.012502748
1	0xbbae7f59	-0.0053252396
2	0xbdea481e	-0.114395365
3	0x3cdb4644	0.026766904
4	0x3d5dda7c	0.05416344
5	0x3dae5117	0.085115604
6	0xbd29820d	-0.04138379
7	0x3dab4add	0.083638884
8	0x3c926f5b	0.017875364
9	0x3d1b223b	0.03787444
10	0xbd8638dd	-0.065538146
11	0xbdc9b8c3	-0.098496936
12	0xbd4fe425	-0.050754685
13	0x3e129f3b	0.14318554
14	0xbdbdd287	-0.092686705
15	0x3ce07d2a	0.027403433
16	0x3d0b0d46	0.033948205
17	0xbd8baa9a	-0.06819649
18	0xbdc6d3b9	-0.09708352
19	0x3f028164	0.50978684
20	0xbdd81e24	-0.10552624
21	0xbe3c7449	-0.18403734
22	0xbe25d7d1	-0.16195609
23	0x3dc58929	0.09645302
24	0xbecb4464	-0.39700615
25	0xbe87e130	-0.26538992
26	0x3e9d6064	0.30737603
27	0xbd27bbc3	-0.040950548
28	0xbcf9dec9	-0.03050174
29	0xbd91f86b	-0.0712746
30	0x3e70a860	0.2350173
31	0x3e04426c	0.12915963
32	0xbb9dd118	-0.0048161857
33	0xbc49465d	-0.012284842
34	0x3dfdb9e2	0.1238897
35	0x3d7c6381	0.06161833
36	0x3d1c961f	0.038229104
37	0xbe6017a2	-0.21884015
38	0x3e6632b4	0.22480279
39	0x3ec56283	0.3855172
40	0xc09000c6	-4.5000944
41	0x3e858db4	0.26084673
42	0xbcc9a047	-0.024612559
43	0xbe949cd0	-0.29025888
44	0xbbe51912	-0.006991514
45	0xbcfa5ef8	-0.030562863
46	0x3e29571e	0.16537139
47	0xbd1b485f	-0.037910815
48	0x3dca05c2	0.098643795
49	0x3e610b51	0.21976973
50	0xbc242703	-0.010019067
51	0x3d150bc2	0.036388166
52	0xbdae35a5	-0.08506326
53	0xbcd32132	-0.025772665
54	0xbe0ae427	-0.13563596
55	0xbd469ffb	-0.048492413
56	0xbd5694f1	-0.052388135
57	0xbd96a0cf	-0.073548906
58	0x3e7349d0	0.23758626
59	0xbe04847b	-0.12941162
60	0xbd56e6cc	-0.0524662
61	0xbdbac9a7	-0.091204934
62	0xbd8add7d	-0.06780527
63	0x3c73cc0f	0.014880194
64	0x3d745d5e	0.059659354
65	0xbd6a8ce4	-0.05726327
66	0x3d3211c8	0.04347399
67	0x3d3516e0	0.04421127
68	0xbd129480	-0.035786152
69	0x3cd262a3	0.0256818
70	0x3e17d4dd	0.14827295
71	0x3c76a402	0.015053751
72	0x3e42a363	0.1900764
73	0x3d9ad7dc	0.07560703
74	0xbcbf81fd	-0.023377413
75	0x3e862c33	0.26205596
76	0x3e79a2b2	0.2437847
77	0x3d2e7ef5	0.042601544
78	0xbcd4aec0	-0.025962234
79	0xbafea687	-0.0019428291
80	0xbc99f9a4	-0.018795796
81	0x3e6931cd	0.22772904
82	0x3e52af3e	0.20574662
83	0xbd12c380	-0.035830975
84	0x3ea6dda7	0.32590982
85	0xbfb47852	-1.4099219
86	0x3be861fe	0.0070917597
87	0x3e2c1205	0.16803749
88	0x3e5fb5d1	0.21846701
89	0xbe0a348d	-0.13496609
90	0xbdcc8c8b	-0.09987744
91	0xbdfb0577	-0.12256902
92	0x3c478402	0.012177469
93	0xbc505910	-0.012716547
94	0xbe5f3868	-0.21798861
95	0x3de4e5a8	0.11176616
96	0xbe30a64a	-0.17250934
97	0xbe4d9cea	-0.20079389
98	0xbd43b9d7	-0.047784653
99	0x3e2b79f8	0.16745746
100	0x3e9a35b7	0.30119106
101	0x3df20bb0	0.118186355
102	0x3e71a48a	0.23597923
103	0x3e5703a9	0.2099749
104	0x3bb09ea4	0.005390005
105	0x3c411b4b	0.011786292
106	0x3e307ad2	0.17234352
107	0x3d2acc2c	0.04169862
108	0x3dcd73e5	0.10031871
109	0xbda334c6	-0.0796905
110	0x3c69285a	0.014230812
111	0xbeb51228	-0.35365415
112	0xbd10f0c1	-0.03538585
113	0x3dfe4603	0.124156974
114	0xbd8bb26d	-0.068211414
115	0xbdc66753	-0.09687676
116	0x3c8812b6	0.016610485
117	0x3db19ee1	0.08672882
118	0x3d824ff5	0.06362907
119	0x3dfae86c	0.12251362
120	0x3e618744	0.22024256
121	0x3d65affe	0.056076042
122	0x3db96838	0.09053081
123	0x3dbb8ee6	0.09158115
124	0x3e1a4008	0.15063488
125	0x3d26b02f	0.040695366
126	0x3e1a44ca	0.15065303
127	0x3f048d3f	0.51778024
128	0xbf582d7f	-0.8444442
129	0x3eae98ec	0.34101045
130	0x3e85af36	0.26110238
131	0x39d31c2d	0.0004026605
132	0xbf8b37c1	-1.087639
133	0x3df48fad	0.119414665
134	0x3ed0591b	0.40692982
135	0xbdfb5c2d	-0.122734405
136	0xbde8e53c	-0.11371848
137	0x3d3e97a7	0.046531346
138	0x3e65f97c	0.22458452
139	0xbea44eba	-0.32091314
140	0xbddb964b	-0.107220255
141	0xbc9ca7dc	-0.01912301
142	0xbe0d4eb0	-0.13799548
143	0xbe148e51	-0.14507414
144	0x3e0e5ed0	0.13903356
145	0x3e6212e6	0.22077522
146	0x3eaea85e	0.3411283
147	0xbf947c6d	-1.1600472
148	0x3d75a4f8	0.05997178
149	0x3f8dc566	1.1075866
150	0xbf2880a1	-0.6582127
151	0xbe56e8f4	-0.20987302
152	0x3e6b389e	0.22970816
153	0xbc25c55b	-0.010117854
154	0x3c13e0bc	0.009025749
155	0xbde9cf8d	-0.1141654
156	0x3d8e02b7	0.069341116
157	0xbe485745	-0.1956454
158	0xbdbfd25e	-0.09366296
159	0x3de7f0c0	0.11325216
160	0x3c97de68	0.018538669
161	0xbddbcf5f	-0.10732912
162	0x3cc5a3ab	0.024125895
163	0xbd0997b2	-0.033591934
164	0x3de5036a	0.11182292
165	0x3e35a8ac	0.17740124
166	0xbdaaf94b	-0.0834833
167	0x3de02a6b	0.109455906
168	0x3de5d99b	0.112231456
169	0x3cbc8c1a	0.023016024
170	0xbce6fd7a	-0.028197039
171	0x3e0a3f02	0.13500598
172	0x3e44930a	0.19196716
173	0x3d22d66a	0.039755262
174	0x3e8160ce	0.2526917
175	0x3c9cfd8c	0.01916387
176	0x3e431978	0.19052684
177	0xbddb0cf4	-0.1069583
178	0x3cabdbc0	0.020978808
179	0x3db83dfb	0.08996197
180	0x3e07d76a	0.13265768
181	0xbc9bd1bd	-0.01902091
182	0xbd3e2df5	-0.046430547
183	0x3e9bd6c8	0.30437303
184	0xbd2efd57	-0.042722072
185	0xbe060102	-0.13086322
186	0x3cf8edfe	0.030386921
187	0x3d078009	0.03308109
188	0x3d227159	0.039658878
189	0xbd533920	-0.05156815
190	0xbcbd4633	-0.023104763
191	0xbd3856ae	-0.04500454
192	0x3f2c6216	0.6733717
193	0xbee79971	-0.45234254
194	0x3cea1d4f	0.028578429
195	0xbd20077a	-0.03906963
196	0xbdce270a	-0.1006604
197	0x3dc3e6b1	0.09565485
198	0xbe622670	-0.22084975
199	0xbdecb44b	-0.11557826
200	0x3c277343	0.010220352
201	0xbec02c9a	-0.37534028
202	0x3de7b27e	0.113133416
203	0x3dc475fa	0.09592815
204	0x3e2d91a4	0.16950089
205	0x3d8e101c	0.06936666
206	0xbd8718c7	-0.06596523
207	0xbe163dc4	-0.14671999
208	0xbe43482a	-0.19070497
209	0x3cd658f4	0.026165463
210	0x3eed2565	0.46317592
211	0x3e726bb1	0.23673894
212	0xbddb8696	-0.107190296
213	0x3de0601b	0.10955831
214	0xbd3a17e9	-0.04543296
215	0xbd1b47a8	-0.037910134
216	0x3d7582af	0.059939083
217	0xbd27c742	-0.04096151
218	0x3e929ccd	0.28635255
219	0xbe38657d	-0.18007465
220	0xbe296638	-0.165429
221	0x3eefdbb9	0.46847323
222	0x3d02915c	0.031876907
223	0xbe05d99d	-0.13071294
224	0xbc7fffb4	-0.015624929
225	0xbce8c5fd	-0.02841472
226	0xbd07b4b1	-0.033131305
227	0x3ec3c5b5	0.38236776
228	0x3e745e1d	0.23864026
229	0x3d8bbeeb	0.06823524
230	0x3eb4671f	0.35234925
231	0x3d102166	0.0351881
232	0x3e157ce4	0.14598423
233	0xbcb4b0a4	-0.022056885
234	0x3da196c2	0.07890083
235	0x3ea9f114	0.3319174
236	0xbf58509a	-0.8449799
237	0x3ed6ada0	0.4192934
238	0x3e4c3d26	0.19945201
239	0xbef29548	-0.47379518
240	0xbf3b8eca	-0.73264754
241	0x3f3214a6	0.69562757
242	0x3e75abdd	0.23991342
243	0xbe13cb3a	-0.14432994
244	0xbe2b9532	-0.16756132
245	0x3c4fb248	0.012676783
246	0x3d5f5e90	0.05453354
247	0x3d811e12	0.063045636
248	0xbede4bb0	-0.4341712
249	0xbd0f2cae	-0.03495472
250	0x3dc6b569	0.0970257
251	0xbe83aa28	-0.25715756
252	0x3f5c306d	0.8601139
253	0xbf821387	-1.0162209
254	0xbe061dd7	-0.1309732
255	0x4040524c	3.005023

map.6.bias f4 [12]
0	0xbfd1fbb4	-1.6404939
1	0xbe97a0c0	-0.2961483
2	0xbeb837df	-0.35980126
3	0xbe51b287	-0.20478259
4	0xbeef31c8	-0.46717668
5	0x3d3c701c	0.046005353
6	0xbe8a945c	-0.27066314
7	0xbe466cd3	-0.1937745
8	0x3e6f87cf	0.2339165
9	0x3f40e9e8	0.7535691
10	0x3f4e28f0	0.80531216
11	0xbf4c79f5	-0.7987359

map.7.weight f4 [12]
0	0x3e96ac7c	0.2942847
1	0x3f0fbfa2	0.56151783
2	0x3e89d62c	0.26921213
3	0x3e920643	0.28520402
4	0x3ef49576	0.4777028
5	0x3e8c1889	0.2736247
6	0x3dbfed1e	0.093713984
7	0x3f7d5435	0.98956615
8	0x3ef516cd	0.47868958
9	0x3e42dd0d	0.19029637
10	0x3f7cccc7	0.98749965
11	0x3ef143af	0.4712195
